app/src/main/res/raw/mobile_classifier_oil.onnx (onnx, 14006 bytes, 4 tensors)

coefficient f4 [60, 50]
000000 fa f5 ad bf 80 8f 3a bf db 25 02 c0 6a cb 07 40
       -1.3590691 -0.72875214 -2.0335605 2.1217904
000010 de 26 7e 3d 5e ea c4 bd 68 e0 04 bf 65 aa 22 3f
       0.062048785 -0.096150145 -0.51904917 0.6354125
000020 f2 3c 6f 3f 87 9b c0 be 99 0b 00 bd a0 64 3a bc
       0.9345237 -0.37618658 -0.03126106 -0.01137653
000030 b3 32 92 be 0f 21 35 bf dc ea ea 3e 55 68 8e bf
       -0.28554305 -0.7075357 0.45882308 -1.112559
000040 ef 45 c5 bd e0 8f f1 3e 5e 20 32 be 94 15 81 bd
       -0.096324794 0.4718008 -0.1739516 -0.06302944
000050 17 ea 42 bf 08 d0 6a be 6a 31 0f bf 0a 83 e7 bf
       -0.7613844 -0.2293092 -0.55934775 -1.8086865
000060 fb 85 fe 3f 9c cc a9 bf f2 9a 5e 3f bd 68 2a 3f
       1.9884638 -1.3265567 0.8695518 0.6656607
000070 a6 c1 20 3e f4 d3 82 3f af c2 ae be 74 73 c9 be
       0.15698871 1.0220933 -0.34132907 -0.39345896
000080 5d bf 83 bc 7a fe a4 bf a8 c7 fd 3e 91 db fb be
       -0.01608246 -1.289016 0.49566388 -0.49190953
000090 aa f9 2f bf d2 c0 68 3d 1a 64 6a bf 9d 5c c1 3e
       -0.6874033 0.056824513 -0.9155899 0.3776597
0000a0 ab 8f 8d bf d1 f8 83 3d 79 1e 73 bf 49 97 45 bf
       -1.1059469 0.06443942 -0.9496837 -0.7718397
0000b0 b9 91 3d bf 47 b3 13 bf e7 a1 c9 be ac f3 ae 3e
       -0.7405048 -0.5769543 -0.39381334 0.34170282
0000c0 42 1d 8d bf df 2d 59 3e 75 91 4c bf e1 fc 95 3d
       -1.1024554 0.21208905 -0.7990945 0.073236234
0000d0 8a c5 69 bf ba 6f 7c 3f 4f c9 e3 3d 2e fe 98 be
       -0.91317046 0.9860798 0.11122381 -0.29881424
0000e0 ee 3b 03 bf e3 f6 c1 3e 6a 80 20 3f 3e ab a3 be
       -0.5126332 0.37883672 0.62695944 -0.31966585
0000f0 58 93 ce bd 0f 4b 5f bb 5d 11 c0 be f7 b2 34 bf
       -0.10086697 -0.0034071838 -0.37513247 -0.7058558
000100 ea d9 f3 3e eb 74 3d bf 38 e0 a3 3e 6b 40 26 3f
       0.47627193 -0.7400653 0.32007003 0.64942044
000110 f0 e0 68 be d6 05 97 3d 5d a8 3c bf bb 5f 49 bc
       -0.22742057 0.0737416 -0.736944 -0.01229089
000120 45 ee 1c be 74 ab 64 bf 05 f1 69 3f 67 42 9c bf
       -0.15325268 -0.89324117 0.9138339 -1.2207764
000130 01 84 ad 3e 2e bf 80 3e 51 e4 c7 3e a1 4c 96 be
       0.33889773 0.2514586 0.3904138 -0.29355338
000140 c6 45 8a be f8 04 95 be a9 1e de be e7 19 f3 be
       -0.27006358 -0.29105353 -0.43382767 -0.474807
000150 da c5 e9 3e 29 17 29 be 7a 49 b5 be 88 84 82 bf
       0.4565876 -0.16512741 -0.3540762 -1.0196695
000160 15 e7 4e bd 37 56 ab 3e 69 04 86 bf ee e0 38 3e
       -0.050513346 0.33464214 -1.0470096 0.18054554
000170 e7 4f 1f bf 0e 76 48 be ee 04 bf be 02 48 27 bf
       -0.62231296 -0.19576284 -0.3730845 -0.6534425
000180 aa 54 a4 be 8a 62 8a bd e3 09 00 bf db ae d8 bc
       -0.32095844 -0.06757076 -0.50015086 -0.026450565
000190 83 6e ed be 2e b5 d3 3e f5 da 2d bf e4 e5 26 3f
       -0.46373376 0.41349167 -0.67912227 0.65194535
0001a0 16 9a e6 be 37 ef 20 be 55 26 30 be b0 47 56 3f
       -0.45039433 -0.15716253 -0.17202123 0.83703136
0001b0 4f 48 0f 3f 2b b2 02 be b9 8a 3d be e4 30 d3 3e
       0.5596971 -0.12763278 -0.1850995 0.41248238
0001c0 64 42 1b 3e cb 9c 25 bf c8 56 0b 3f 09 37 07 bf
       0.15162045 -0.6469237 0.5442929 -0.5281835
0001d0 69 d9 3c be a3 50 f4 3e ba 0d 29 be b2 a5 3e bd
       -0.1844231 0.4771777 -0.16509143 -0.046544738
0001e0 33 1f 2a bf be 88 33 3e 66 be 9e bc 92 6b 8d bf
       -0.66453856 0.17532632 -0.019377898 -1.1048453
0001f0 6f 2e 77 3f 1e c3 61 bf 90 d0 37 3f 31 27 c2 3e
       0.9655523 -0.8818835 0.71802616 0.37920526
000200 4d 93 d5 3e 23 ba 7e 3e 5e dc 32 bc a2 ed a4 be
       0.41713944 0.24875693 -0.010916797 -0.3221255
000210 00 df 92 bd cc 48 88 be 38 de dc 3d c0 0f af be
       -0.0717144 -0.2661804 0.10784572 -0.34191704
000220 53 3c ae be e5 a7 f2 be f0 d2 57 3e 06 d9 6c 3c
       -0.340304 -0.47393718 0.2107656 0.014456039
000230 a3 14 57 bf 6c ef 20 3f cf 3b 2e bf 61 29 92 be
       -0.84015864 0.6286533 -0.6806001 -0.28547195
000240 e9 70 f1 be 6c 3b 94 bf 01 38 5e bd 95 fd 66 be
       -0.47156456 -1.1580634 -0.05425263 -0.22557671
000250 57 97 06 3d 1c 40 f9 3d 29 36 0b bf a7 6b 15 3f
       0.032859173 0.12170431 -0.54379517 0.5836739
000260 f5 de a0 3d 1a f8 f1 bd a7 a0 83 be 68 de 1e bd
       0.07855026 -0.118149 -0.25708506 -0.038786322
000270 a6 39 65 3e c6 f4 72 bd 08 2d ec ba 3b bb 70 3c
       0.22385272 -0.059315465 -0.0018018791 0.014693077
000280 63 a5 72 3e 6d b8 c2 be da c7 8a be 69 ab be be
       0.23695903 -0.3803133 -0.271056 -0.3724015
000290 6a ef 24 3f 82 dd 85 be 22 1f 9b bd a7 9e 25 3f
       0.64427817 -0.2614556 -0.075742975 0.6469521
0002a0 93 2c 24 be ef 85 33 be f3 0e 8c be 5d c9 d3 3e
       -0.16032629 -0.1753156 -0.27355155 0.41364565
0002b0 a8 47 64 be a5 9d 17 bf 82 46 53 3e 4b a3 6c 3b
       -0.2229296 -0.5922492 0.20632365 0.0036108072
0002c0 99 62 0e 3f 29 7b 49 be 0b 3d 2e 3f e4 67 00 3d
       0.556192 -0.19675888 0.68061894 0.031349078
0002d0 31 d4 3d bc 64 15 2a 3c 8d a2 02 bf 51 02 6c 3e
       -0.011586235 0.0103810765 -0.5102928 0.23047759
0002e0 13 ae 69 bd fe f8 eb be 4e 68 1d bf 4f 0f 38 bf
       -0.057050776 -0.46088403 -0.6148728 -0.7189836
0002f0 3e e5 01 be 1e 83 d2 be 1b dd 56 be 37 6e c9 3e
       -0.12685105 -0.4111566 -0.20982783 0.393419
000300 a9 58 29 3c 6a c1 0a be cd f4 57 be 19 ba 0e bf
       0.01033608 -0.13550344 -0.21089478 -0.5575271
000310 02 41 ed be d8 39 b5 bd 71 0b 7d be 6d b9 b9 be
       -0.4633866 -0.088489234 -0.24711396 -0.3627428
000320 b5 f9 a5 be 74 84 89 3f a6 f8 c2 3e f8 f7 68 be
       -0.32417074 1.0743546 0.3808033 -0.22750843
000330 bf 43 8f bd 23 df c4 be e0 ba 8f bd c7 a9 ad be
       -0.069953434 -0.3845149 -0.070180655 -0.33918592
000340 b7 f5 d5 3e 5f 31 50 3d bc ab c8 3c 34 20 0a bf
       0.41789028 0.050828334 0.024495952 -0.5395539
000350 d4 35 86 be cf 1b 11 be 09 0b 8a 3e 48 b0 ea 3c
       -0.26212943 -0.14170764 0.26961544 0.02864851
000360 87 40 ef bd dd c0 2f 3f 57 67 80 be 43 f9 ca be
       -0.116822295 0.6865366 -0.25078842 -0.39643297
000370 b9 70 3f 3e 63 e6 c8 3d e9 4c ae be 10 1c 3c bd
       0.18695344 0.09809568 -0.34043053 -0.0459252
000380 a8 00 24 3f 17 67 5b 3d ab 48 37 3f 3d 27 1c be
       0.640635 0.05356511 0.7159526 -0.15249343
000390 dc f7 5b 3e 2b 67 8c be 34 54 54 bd 3a 94 20 3e
       0.2148127 -0.2742246 -0.051838115 0.15681544
0003a0 cc 0a 06 be e6 ab 32 3e bd c7 97 be bc 85 e0 be
       -0.13090056 0.17448387 -0.29644576 -0.4385203
0003b0 e3 e5 31 bf bd 43 1c bf de 4d 19 bf ef b9 ee be
       -0.69491404 -0.6104086 -0.5988444 -0.4662623
0003c0 da 2c a4 bc 1b 64 29 3f 1a 27 98 be 19 07 48 ba
       -0.020040918 0.66168374 -0.29717332 -0.0007630452
0003d0 55 fa fb be 04 3e 87 be c8 f7 5e bf a1 ab ab be
       -0.49214426 -0.26414502 -0.87096834 -0.3352938
0003e0 67 fc d5 bd e4 2a 23 bf ec aa 75 be c8 6d 3f 3f
       -0.104485326 -0.6373732 -0.23990983 0.7477689
0003f0 38 a4 b8 3e 36 1b 11 bf fd a4 1d be cf d2 b8 be
       0.3606279 -0.56682146 -0.1539497 -0.36098334

intercepts f4 [1, 50]
000000 d8 c0 ac 3f cb fe bb be 2d d1 86 bf 3d 9c b8 be
       1.3496351 -0.3671783 -1.0532585 -0.360567
000010 50 ea 04 3f 71 09 98 3e 1f 89 ae 3f 17 b2 e4 3e
       0.5192003 0.29694703 1.3635596 0.44667122
000020 3b b0 2e 40 d1 6d 03 3f 91 8a fa 3e f0 37 73 3e
       2.7295063 0.5133944 0.48933843 0.23751807
000030 4e c0 18 be 09 16 23 3e 3d 5e 15 be 9f 61 21 be
       -0.14917108 0.15926374 -0.1458673 -0.15759896
000040 33 9f 60 3f 0c a8 03 40 79 93 ea 3e f9 03 7c 3f
       0.8774292 2.0571318 0.45815638 0.9844356
000050 bb 08 94 3f 47 ac c1 3e e7 a7 36 3e ba c6 eb 3e
       1.1565164 0.3782675 0.17837487 0.46050054
000060 0b ac e8 3f 42 07 ca 3e e4 5d b3 3e 8c 13 90 bd
       1.8177503 0.39458662 0.3503257 -0.07034978
000070 c5 b2 88 bd 6d 8f 92 3f 7a cc 64 3f c5 38 39 3f
       -0.066747226 1.145002 0.89374506 0.7235225
000080 07 07 a7 3f 70 c9 83 bf fe 62 ef be f2 2c d5 be
       1.304902 -1.0295849 -0.46755213 -0.41635853
000090 c2 21 a2 3e 90 1c 28 3f d2 2b f3 bf d9 ae 35 3d
       0.3166638 0.6566858 -1.8997748 0.0443562
0000a0 13 f9 83 3f 99 ce 33 3d 9b 5a 70 3f 98 33 1d 3f
       1.0310386 0.0438982 0.9388825 0.6140685
0000b0 94 c2 c4 bb 13 9e 80 3f 48 3a 5a 3f ce 9c 38 3f
       -0.006004641 1.004824 0.8524518 0.72114265
0000c0 26 72 88 bf 41 63 fb be
       -1.0659835 -0.49099162

coefficient1 f4 [50, 3]
000000 2e b6 7d 40 25 dc 31 bf a2 72 ab c0 c6 30 41 3f
       3.9642444 -0.6947654 -5.3577433 0.7546505
000010 91 29 26 c0 f7 97 1e 3e ab e0 a0 c1 79 e5 47 3f
       -2.596287 0.15487657 -20.109701 0.7808452
000020 5e 9d dd 40 43 d1 6d 40 20 37 60 3f e1 4a 88 c0
       6.92546 3.7158973 0.87584114 -4.2591405
000030 27 76 03 3f b6 f6 27 3e e2 b6 54 bf b6 af ba 3f
       0.5135216 0.16402707 -0.8309156 1.4584873
000040 fa 31 b3 bf 1d 6f 84 be 9f d9 ce be ae 32 3f bf
       -1.3999627 -0.25866023 -0.40400407 -0.74686706
000050 bd 2d e0 3e dc 90 96 3f b6 c3 65 3e 96 06 dd bf
       0.43784896 1.1762958 0.22437939 -1.7267635
000060 45 45 0c bf 98 90 0c 40 90 ad 9a bf c0 e3 01 40
       -0.54793197 2.1963253 -1.2084217 2.0295258
000070 4f 38 03 3f 68 3e 33 c0 59 10 95 3f 60 92 98 3f
       0.51257795 -2.800684 1.1645614 1.191967
000080 a0 63 c0 bf 1c b3 12 bd c0 d4 82 3e 25 a8 4d bf
       -1.5030403 -0.035815343 0.2555294 -0.80334693
000090 24 64 89 3f 63 cc 62 40 7a 3b 1f c1 a1 c1 b9 c0
       1.0733685 3.5437248 -9.952021 -5.8048863
0000a0 d8 f9 90 3f 51 2f 44 40 bc 9d fc bd dd 2a 9e c0
       1.1326246 3.065388 -0.12334773 -4.9427323
0000b0 3b fb 16 40 f2 3b c5 be b4 37 57 bf cd fc ed 3e
       2.359084 -0.38522297 -0.8406937 0.46481934
0000c0 2c ba 01 41 61 9f 5b c0 2a 5a c0 c0 f1 5c 7d 3f
       8.107952 -3.4316027 -6.0110064 0.9896994
0000d0 b1 9a bb bf a9 82 39 3c d1 b2 bd bf de df 6a 3f
       -1.4656583 0.011322656 -1.4820195 0.91747844
0000e0 59 2a b3 3e 7a 0a 8a bf ed dc 1c bf a5 34 bc 3f
       0.34993246 -1.0784447 -0.61274606 1.4703566
0000f0 0a 6f 29 c0 af 91 17 3f 16 a6 e9 3f 82 5d 23 3f
       -2.6474023 0.5920667 1.825381 0.63814557
000100 db a1 3b 3e f0 e9 0e bf b2 2c 1e c0 46 09 b4 3b
       0.18323462 -0.5582571 -2.471478 0.0054942695
000110 aa 52 1d 40 c8 13 2e bf 58 b8 ca bf c0 90 18 40
       2.4581704 -0.67998934 -1.5837507 2.3838348
000120 7b 56 05 bf 41 7c 0d 40 2f 30 10 bf fb 7b ba bf
       -0.52085084 2.2107089 -0.5632352 -1.4569086
000130 e6 bd 14 bf ff e5 14 40 80 ba b6 3e eb 1b 62 bf
       -0.5810226 2.3265378 0.35689163 -0.8832385
000140 95 d5 5d 3e 4e 74 95 bf d6 76 17 40 a9 91 c1 3d
       0.21663506 -1.1676118 2.3666282 0.094516106
000150 a1 75 cf bf bb 35 91 bf 4c 6b 04 40 0b 42 41 3e
       -1.6207772 -1.1344522 2.069049 0.1887285
000160 56 2a 3d 3f 13 5d 86 bf 82 76 7f bf a5 ee 72 bb
       0.73892725 -1.0497154 -0.99790204 -0.0037068513
000170 83 57 82 3f a6 d7 69 40 e5 15 01 40 32 ff f4 c0
       1.0182956 3.6537871 2.0169613 -7.656152
000180 2c 05 37 bf 56 0f 26 bf c4 d2 ac 3f 15 44 59 3f
       -0.71492267 -0.6486715 1.350182 0.8486951
000190 1d 8b 43 c1 a8 cf b0 3f 59 25 13 41 ec 3f 94 c0
       -12.221463 1.3813372 9.196618 -4.632803
0001a0 d1 a3 8a c0 d4 a0 90 3f 57 71 81 bd bf e8 98 bf
       -4.332497 1.1299081 -0.06320446 -1.1946028
0001b0 5e 4c 74 40 45 6d ce bf 74 e0 40 c0 6e f1 b7 be
       3.817161 -1.6127096 -3.0136995 -0.35926384
0001c0 ff 30 df 3e 90 57 5b bd 79 80 8e 3f 8c b1 f5 3d
       0.4359207 -0.053550303 1.1132957 0.11996755
0001d0 91 ec be bf bb 10 45 40 12 06 80 c0 ea 25 45 40
       -1.4915944 3.0791461 -4.000741 3.080439
0001e0 ba ea 5f bf a0 49 a7 be 77 ff 26 3f be 90 a2 3e
       -0.8746754 -0.3267336 0.6523356 0.31751055
0001f0 12 0a 87 c0 ca 37 88 3f 34 c2 9a c0 e1 11 d2 3f
       -4.2199793 1.0642025 -4.8362064 1.6411706
000200 78 8f 08 40 8d 5f 79 c1 a4 79 c0 bf 32 3b 11 41
       2.1337566 -15.585828 -1.5037122 9.076952
000210 f0 5a 17 c0 47 ed 0d 3f b9 d2 8c 3f 6a c9 a3 c0
       -2.3649254 0.5544018 1.1001807 -5.1183367
000220 9f 4d ad 3f 90 8a 7d 40 e1 91 16 40 ae 7a b5 bd
       1.3539313 3.9615822 2.3526537 -0.0886129
000230 bc c1 39 c0 4b 65 bd bf 97 47 00 bf 02 d2 22 40
       -2.9024496 -1.4796537 -0.5010924 2.5440679
000240 f3 92 71 c0 a6 19 d0 40 b2 14 ca 3d 84 7a 68 3e
       -3.774594 6.503131 0.098672286 0.22702986
000250 53 f0 43 3f a4 3c 0e bf
       0.7653858 -0.5556128

intercepts1 f4 [1, 3]
000000 f1 14 84 be 49 47 3c bf 78 ef 00 3f
       -0.25797227 -0.7354627 0.503654
