app/src/main/res/raw/mobile_classifier_kiwi.onnx (onnx, 239140 bytes, 9 tensors)

Mu_Mulcst f4 [68]
00000000: a6ee 2e40 5640 3940 51e4 3340 8352 3040
00000010: 0f13 3040 792d 2f40 c69f 2e40 98e9 2d40
00000020: bd83 2a40 e581 2740 08be 2440 db5d 2240
00000030: ea7c 1f40 1b92 1540 01e9 0c40 4940 0640
00000040: 8b4e 0140 c30d fe3f 4fc4 f83f de1c f53f
00000050: 01e5 f13f 4f38 ed3f 5fad e73f 09b4 e33f
00000060: cea1 e43f 3eaa e63f 93b4 e43f d85c e33f
00000070: 9a2c e43f 868c e53f 817d e73f acf9 e83f
00000080: d6c4 e63f a78f d63f 86ef bf3f 4073 af3f
00000090: 2adc a63f 31e6 a03f c6af 9c3f b170 983f
000000a0: 3415 953f 4b0e 923f dde1 8f3f 36bc 8d3f
000000b0: 5536 8b3f ae18 893f 74ab 873f 88b2 863f
000000c0: 9ea0 863f 2142 873f 36a8 873f 020f 883f
000000d0: ce88 883f e050 883f 8c61 893f 26a0 8a3f
000000e0: 8c23 8c3f 5494 8d3f 285e 8f3f 3922 933f
000000f0: dff9 973f 22ce 9e3f 5260 a93f e810 b13f
00000100: 278c b43f 776a b53f 1f63 b53f 35bf b53f
2.733316 2.8945518 2.8108103 2.755036 2.7511632 2.7371504 2.7285018 2.7173824
2.6642907 2.6173031 2.5740986 2.5369785 2.4919991 2.3370426 2.2017214 2.0976737
2.020419 1.984795 1.9434909 1.9149435 1.8898011 1.8532809 1.8099784 1.7789317
1.7861879 1.8020704 1.7867607 1.7762709 1.7826111 1.7933509 1.8085176 1.8201194
1.802882 1.6762589 1.4994972 1.3707047 1.3035939 1.2570249 1.2241142 1.1909391
1.1647096 1.1410612 1.1240803 1.1073062 1.0875956 1.0710657 1.0599198 1.0523233
1.0517766 1.0567056 1.0598209 1.062958 1.066675 1.0649681 1.0732894 1.0830123
1.0948348 1.1060891 1.1200609 1.1494819 1.187313 1.2406657 1.323252 1.3833284
1.4105271 1.4173115 1.4170874 1.4198977

Ad_Addcst f4 [68]
00000000: 5555 5abe 7e29 12be f8c9 9bbd 46f8 3fbd
00000010: b397 00bd ced7 abbc e168 7dbc 71ff 42bc
00000020: 2fb2 03bc 14fb 9cbb 7dc0 1ebb 2c88 d3ba
00000030: 8405 d5ba bb32 aaba af83 92ba 6ac8 8aba
00000040: 8351 a8ba a0a9 9fba c2a4 d2ba 00a2 08bb
00000050: 997c c2ba 8bac c5ba 89b9 41b9 0000 0000
00000060: f74f 26bb 8563 d0bb f7a1 30bc 3da5 67bc
00000070: 3bb9 66bc 134f 8cbc 29bc 92bc 1e37 94bc
00000080: b65c aebc 766f cdbc 8875 fabc 4293 01bd
00000090: ed36 09bd 4b0c 0abd 1f3d 0ebd ab23 0fbd
000000a0: 3744 14bd 2027 1cbd 8fd4 20bd 60d9 2bbd
000000b0: 17e9 32bd 473f 3cbd 7143 44bd abb5 4dbd
000000c0: d113 54bd 47cd 5abd a9fa 5fbd 7271 67bd
000000d0: 52c2 6dbd 9a8d 74bd 0415 79bd 48d5 7dbd
000000e0: 6a0b 83bd 8ddb 84bd 5d00 86bd 11e1 88bd
000000f0: 7838 8abd c0ee 8cbd e4d0 8fbd 4cf6 94bd
00000100: 94a6 a0bd 8bfe abbd 03c0 bbbd ea3c d0bd
-0.21321614 -0.1427364 -0.07606882 -0.04686763 -0.03139467 -0.020976927 -0.0154669 -0.011901722
-0.008038088 -0.004790673 -0.0024223619 -0.0016138605 -0.0016252254 -0.001298509 -0.0011178161 -0.0010588292
-0.0012841675 -0.001218129 -0.001607083 -0.0020848513 -0.0014838158 -0.0015081329 -0.00018475032 0.0
-0.0025377253 -0.00635952 -0.010780803 -0.014138517 -0.014082248 -0.01712755 -0.017911987 -0.018092688
-0.021284442 -0.025077563 -0.030573621 -0.031634577 -0.033499647 -0.03370313 -0.03472626 -0.034946125
-0.036197867 -0.03812325 -0.03926521 -0.04195535 -0.043679323 -0.045958783 -0.04791588 -0.05022208
-0.05177671 -0.053418424 -0.054682408 -0.056504674 -0.058046646 -0.059705354 -0.060811058 -0.06197098
-0.063986614 -0.064871885 -0.06543038 -0.06683553 -0.06749052 -0.068814754 -0.070222646 -0.0727354
-0.07844272 -0.083981596 -0.09167483 -0.101678684

coefficient f4 [68, 200]
00000000: 8eee b982 e237 2a3e 4b1f 86bd 91d2 9f3d
00000010: 520d b3bd 8636 8c3c 8813 96bc fa1a 8d81
00000020: d86e 203e bddc bdbb f2d9 ec82 67f0 683d
00000030: 8d50 b083 406d debe 08de 54be 3bfc 3bbe
00000040: 2ba8 7cbd f9f8 b7bd ea60 2c3e 4c9e c9bd
00000050: fbe8 4dbd 6b4d 003d d5c5 9030 47b8 65bd
00000060: 51c9 07be 9735 61bd 5bea 8c3d eef0 7f83
00000070: 412c 9a3b d4b2 9802 c770 9c3c 745a 8ab8
00000080: 2bb7 1683 7c80 ed3d 5eba d53d 8727 1bbe
00000090: a7c8 d13d 7017 a13d bbac 7e3d 5af6 0a02
000000a0: d175 d63d 7292 b13d 69f4 54bd 1294 8b3d
000000b0: fb36 d03d 9cc4 9c3d ce97 a3ba 2407 d682
000000c0: 2228 e6bd c268 6e3d 402f 67be 065a e43e
000000d0: fdc2 b13d 9f10 b03c 4a23 1b82 a84e a0bc
000000e0: 285b 2f3d eb13 e83d 6017 8a3e e7f0 8083
000000f0: b1d8 e63d 0b3b 49be e00d bf01 1476 5fbe
00000100: 710d 07be e8d0 7dbd 0145 7dbd 9f13 a683
00000110: 551c e83d d0be 34be 7746 f13d 47fb edbd
00000120: 6fd9 be3e b01c 4603 4e01 a0bd e27d 21bd
00000130: bbc5 97be bc89 2bbd f384 0b03 116e 2b3c
00000140: e037 0f3d e8f2 3883 92d3 b403 ed6d d1bc
00000150: 9728 d73d 7357 b603 f0c1 c882 396e 2b03
00000160: 8282 1dbd 705b d83d bc82 3203 0f8e e03d
00000170: 8732 883e 6a4e 623d f75e f53d 3325 633d
00000180: e5bd 5b3e 28f2 6303 7b0e c702 715f 8ebd
00000190: 8ca9 f2bd 54ee 823b c755 0f3d 4972 2b3d
000001a0: d2d6 aa3d 2c1b 543e 05e3 223e 86cd 0bbe
000001b0: 1868 24bd 0445 b03d ac52 3d82 ce2c ad03
000001c0: 8f0a 193d 022b 0cbc 8949 b7be 1b65 943d
000001d0: da2a 073d 077b 1d3c 88cb 223e 8ad4 69bc
000001e0: a085 5301 13ec 47bd 810d 9f3d 3bcd 843e
000001f0: 5b0f cf3d 9bb2 1b82 e638 b03d c93a 8ebe
00000200: acc5 7503 3095 6f3e 7ec2 4d3e 1c94 e2bd
00000210: 967a 213e 908c 8303 6b35 ba3c 0b67 113e
00000220: eab8 983d b288 e483 e265 0f83 fb6d 893d
00000230: 223d 1603 1d48 de83 8bb6 a3be 89c5 ce3c
00000240: fd77 8402 8052 053e 66b4 0cbd caca 26bc
00000250: 60a2 9980 e0d4 eb82 4660 8d3d c85d 283e
00000260: 9396 dc3d 82bf dabd 7494 053d bb0d 26bd
00000270: 8ebb afbd c414 283b 57d2 01ae 9efa ba3a
00000280: cae8 3e3e 53ea fbbd 4b3e 2f3d e43b 603d
00000290: ae47 713e 7f4f 693d 70fb 12be 1991 193e
000002a0: 1bb7 983d cdc7 d9bd 74ca 123d 6bfe 0e83
000002b0: ed04 773d 59c0 d4bd 3092 cc83 c9b2 413e
000002c0: b21d 833c 3c43 fb81 885b 68bc fc70 18be
000002d0: aa9c 55bd 5107 c2bc 9361 533e ed7a 86bd
000002e0: 86be 303e ef63 5d83 1b37 303c b57c fe3d
000002f0: 1580 a5bd 66d4 a1bd 2b35 bc3d 6d74 6a3e
00000300: 5101 ad83 9b85 afbc 88ce 0e3e 1ba5 5783
00000310: ea4c 303f 9300 323d cea6 c73d 7098 c2bd
00000320: 7daa 2783 8256 d43d ae5a 68bd d89e b9bd
00000330: d1cd 013e f113 01be 99f8 5bbd 04d1 2e81
00000340: 4c71 41bd 48d5 003d f87d 4280 9bac 50be
00000350: 2c7c 2383 29ca 82be 518c 6fbe 636b b1bd
00000360: 1dd4 a33c b5c1 83bd a430 263d 5299 f03d
00000370: 4ec9 95bd 91a8 1b3c 3004 312f c199 033d
00000380: 22dc c33d b41f f73c 15d7 2fbd 62bd b403
00000390: 4077 b43d 662b ac03 d5a2 e7bd 556d e737
000003a0: d84a 6582 e48b 0a3e 456e 99bc 0eac 6abc
000003b0: 3310 cebd 2ce8 96bd c1d1 863c c586 6a02
000003c0: 0c7d 833b 6cb0 833d 6734 143e 10d7 65bd
000003d0: c984 c6bd 92fc 19bd 5c31 09be 2433 8683
000003e0: 30d9 983d 72ea 40bd 1529 2ebd e474 883e
000003f0: 1022 a1bd 2b72 b5bd d4c1 2283 4f2a d13c
-2.732023e-37 0.1662288 -0.065489374 0.07803834 -0.08742775 0.017115843 -0.01831986 -5.183393e-38
0.15667284 -0.0057941363 -3.4802178e-37 0.05686989 -1.0362844e-36 -0.43442726 -0.20787823 -0.18357937
-0.061683815 -0.08983035 0.16833845 -0.09844646 -0.050271016 0.03132383 1.0533606e-09 -0.056083944
-0.1326039 -0.054982748 0.06880637 -7.521434e-37 0.0047049825 2.2437035e-37 0.019096745 -6.597201e-05
-4.4291305e-37 0.11596772 0.10435937 -0.15151797 0.102433495 0.078657985 0.062176447 1.0209338e-37
0.104716904 0.0867051 -0.0519909 0.068153515 0.10166737 0.07654688 -0.0012481154 -3.1448572e-37
-0.112381235 0.058205374 -0.22576618 0.44599932 0.08679769 0.0214923 -1.1397729e-37 -0.019568756
0.042811543 0.11331924 0.2697096 -7.578472e-37 0.11271799 -0.1965143 7.018223e-38 -0.21822387
-0.13188721 -0.061966807 -0.061833385 -9.761108e-37 0.11333529 -0.17650914 0.11781018 -0.11620193
0.37275264 5.82199e-37 -0.07812749 -0.03942669 -0.29643044 -0.0418794 4.1001047e-37 0.010463254
0.034965396 -5.4351583e-37 1.0628023e-36 -0.025565112 0.10505789 1.0717076e-36 -2.9498673e-37 5.0378913e-37
-0.03845454 0.10564315 5.2459574e-37 0.109645955 0.2660105 0.055250563 0.11981004 0.055455398
0.21459158 6.6987286e-37 2.9248733e-37 -0.06951798 -0.11848745 0.003995696 0.034993913 0.041857038
0.08341755 0.2071349 0.15906914 -0.1365262 -0.040138334 0.08606914 -1.3909253e-37 1.0178313e-36
0.037363585 -0.008555176 -0.3579829 0.07245847 0.03299985 0.009611852 0.15897954 -0.014271865
3.885045e-38 -0.048809122 0.077662475 0.25937828 0.10110351 -1.1438859e-37 0.086046025 -0.27779225
7.2225945e-37 0.23396754 0.20093724 -0.11063406 0.15769419 7.73176e-37 0.02273055 0.14199464
0.074571446 -1.3432019e-36 -4.214088e-37 0.0671043 4.4151215e-37 -1.3064544e-36 -0.31975207 0.025240676
1.9464527e-37 0.13019753 -0.03435173 -0.010180185 -1.410908e-38 -3.465233e-37 0.06903128 0.16442025
0.10770907 -0.106810585 0.03261228 -0.04054044 -0.08580695 0.0025647143 -2.9518023e-11 0.0014265364
0.1864349 -0.12300553 0.042784017 0.054744616 0.235625 0.05696058 -0.14353728 0.14996757
0.074567996 -0.10633812 0.035837606 -4.2022107e-37 0.060307432 -0.1038825 -1.2023605e-36 0.18915857
0.01600537 -9.2299315e-38 -0.014181979 -0.1488685 -0.05215136 -0.02368513 0.2064269 -0.06566415
0.17260179 -6.506078e-37 0.010755326 0.1242613 -0.0808107 -0.0790184 0.091898285 0.22895975
-1.0168328e-36 -0.021426013 0.13945973 -6.3372353e-37 0.6886736 0.04345758 0.09748612 -0.095017314
-4.92726e-37 0.103680626 -0.056727104 -0.090635 0.12676169 -0.12605263 -0.053703878 -3.2108714e-38
-0.04722719 0.0314534 -6.106332e-39 -0.20378344 -4.8043937e-37 -0.2554486 -0.2339337 -0.086630605
0.019998604 -0.06433431 0.04057373 0.117479935 -0.073137864 0.009500639 1.6099544e-10 0.032129053
0.095634714 0.030166484 -0.042929728 1.0622929e-36 0.08811808 1.0119215e-36 -0.113103546 2.7588258e-05
-1.6845742e-37 0.13529927 -0.018729338 -0.014323248 -0.100616835 -0.07368502 0.01645744 1.7230282e-37
0.0040127095 0.06430134 0.14473115 -0.056113303 -0.096932955 -0.037594385 -0.13397735 -7.8875535e-37
0.074633 -0.047098584 -0.042519648 0.2665168 -0.07867825 -0.088596664 -4.7830025e-37 0.02553287

intercepts f4 [1, 200]
00000000: c367 36bd e2f1 013e 9eaa 60bd 151b 42be
00000010: 5dd3 053d e31b 8ebd fdb7 b1bd 34de 8fbd
00000020: 92cd dabd 8fd2 1cbe fd23 70bd 3cea f93d
00000030: 8d2e e9bd 0e82 0dbe 9c15 383e b607 1d3d
00000040: 1ecb 94bd e828 bbbc e1d6 7dbd 67e7 61bd
00000050: 9aba 10bd d5a3 a9bd 78e3 25bd 1b21 03bc
00000060: 869f cc3d 9893 4c3d a0c2 d3bd 37d7 d5bc
00000070: 6c67 933d c462 44bd 9f0a 193d 047e 1cbc
00000080: 9a13 fbbd 8b1a b73d 3eec 243e f89c 623d
00000090: 246d ba3d c224 b23d d9bf a8bd 449f dbbd
000000a0: 2751 fc3d b802 123e 61ce 1a3e 917c 643c
000000b0: 606e 0b3e 68a8 e13d 2eb9 ac3c dd68 a4bd
000000c0: 3346 c33d e5b2 463e f793 203d 36e1 083e
000000d0: aa62 d9bc e312 21bb eff4 1abd 96c0 a2be
000000e0: df3c c53d bf77 45be 3047 b5bd 1c1f 8abd
000000f0: 68f6 ab3c badd 843e 2da7 03be 1000 393e
00000100: e3e1 043e f074 003e 3d44 813e e503 92bd
00000110: 4599 36be c645 933d e81e 0d3d 84a0 15be
00000120: 153f 483e 1d15 7bbd 954f 21bd 632d 8e3d
00000130: fe62 23be 2c85 12be 9f66 bfbd 2b30 283e
00000140: c164 233e 198f ecbd e7da fcbd 8f46 8b3c
00000150: 4d88 91be 1961 2fbd 749f 98bd 09e0 ffbd
00000160: c7d5 873e a6da 813d 3bc6 96bd 7c73 9ebd
00000170: 4919 d13d 96a8 c43d 4c4d ae3d a51e 233d
00000180: 3837 0d3e 0448 5bbd 77d9 05bd 24e9 173e
00000190: 657a b0bd 40fe 28bd 6e1e 073e e0fd 9a3e
000001a0: 09f0 d13d d763 063e 5d7b 573e 0afe 753d
000001b0: 1047 303e 7160 04be 7fde fcbd 8e99 91bd
000001c0: 76b0 d83d 052a c43d 8ece cc3d 9f80 9d3e
000001d0: 75be f23d 5a75 8fbd b0f4 bcbd d3f8 de3d
000001e0: 1044 ecbd 58d1 2fbd c225 3d3e b579 073e
000001f0: c082 8e3d 4c0a 9bbd 0995 4d3e 9fbe 72bd
00000200: 9263 02be 9a00 46be 1c82 933d a020 053e
00000210: 1ba1 47be 373e b2bd d2b9 0a3e 0cb9 6fbe
00000220: 7813 ed3d eeea d3bd a2a6 0bbe 804f 76bb
00000230: 002d c5bd f0df 17be f0ec 293e 0d86 683d
00000240: 58a5 d0bd a766 223e 30c4 ea3c c67a 96bd
00000250: 1a24 10be 073c 83bd 06ec e9bd 86cf 4bbd
00000260: 9181 fbbd f059 513d 6c6b 153e 5623 413e
00000270: 4f99 9fbc fc64 9a3c c82d cdbb 22c9 963d
00000280: 50d7 35be e171 bc3d e6b2 e1bb 4b8a 4f3d
00000290: bfa9 283e b082 48bd 14b8 47bd 94ab 333c
000002a0: 93b2 583d b30f 163d b5fc 783e e5ae 8fbd
000002b0: afb3 14bd 5028 5dbe ced6 10be c326 35be
000002c0: 4c39 7f3d 9185 a1bd 4109 4ebb 71a9 f43d
000002d0: 8461 7539 db9b 103e 5dd8 18be ccb9 92bc
000002e0: df45 20bc 86a7 bebd 4073 ad3d ac5b fe3d
000002f0: 8fe6 2e3d 0c51 1f3e 72c4 b53d 53d9 0dbe
00000300: 1645 babd f4c2 1bbe 2475 0e3e e99e 6dbc
00000310: a646 a03e 99c5 51bd 681b c6bd 4cbf 233e
-0.04453255 0.12689927 -0.054850213 -0.18955643 0.032672275 -0.06938913 -0.08677671 -0.07024804
-0.10683741 -0.15314697 -0.05862807 0.1220288 -0.11385832 -0.13819143 0.17976993 0.03833743
-0.07265304 -0.022846654 -0.061972503 -0.055152323 -0.035334207 -0.082832016 -0.040500134 -0.008003498
0.09991364 0.049945444 -0.10339856 -0.026103599 0.071974605 -0.047945753 0.037363645 -0.009551529
-0.12259598 0.089406095 0.16105744 0.05532548 0.09102848 0.08698417 -0.08239717 -0.10723737
0.12320166 0.1425885 0.1511779 0.013945715 0.13616323 0.11018449 0.021084394 -0.080278136
0.09534874 0.1940418 0.03920361 0.13367161 -0.026536305 -0.0024577908 -0.037831243 -0.31787556
0.09630751 -0.19283961 -0.088514686 -0.06744215 0.02099152 0.25950414 -0.12856741 0.1806643
0.12976794 0.12544608 0.25247374 -0.07129649 -0.17831905 0.071910426 0.034453303 -0.14612013
0.19555314 -0.061299432 -0.039382536 0.069422506 -0.15955731 -0.14308614 -0.09345745 0.16424625
0.15956403 -0.11550731 -0.1234644 0.017001418 -0.28424302 -0.04281721 -0.07452288 -0.12493903
0.26530287 0.06340532 -0.07362028 -0.07736871 0.10209901 0.09602468 0.08510837 0.039824147
0.13790596 -0.053535476 -0.032678094 0.1483503 -0.08617095 -0.041258097 0.13195202 0.30271816
0.10250861 0.13124023 0.21043153 0.060056724 0.17214608 -0.12927414 -0.12347125 -0.07109366
0.10580532 0.09578327 0.10000335 0.30762193 0.11852733 -0.07004805 -0.09226358 0.10887303
-0.115364194 -0.042924255 0.18471435 0.13230021 0.06958532 -0.07570323 0.20076384 -0.05926382
-0.12733296 -0.19336167 0.07202551 0.13000727 -0.1949505 -0.08703273 0.13547447 -0.23410434
0.11575979 -0.10347544 -0.13637784 -0.0037584007 -0.09627724 -0.14831519 0.1659429 0.056768466
-0.10187787 0.15859471 0.028658003 -0.07347636 -0.14076272 -0.06407934 -0.11421971 -0.049758457
-0.12280572 0.05111116 0.1459176 0.18861136 -0.019482283 0.018846981 -0.006261561 0.07362582
-0.17757916 0.09201408 -0.0068877814 0.050668996 0.16471003 -0.04895276 -0.048759535 0.0109662
0.052904677 0.036636066 0.2431515 -0.0701578 -0.036304172 -0.21597409 -0.14144441 -0.17690568
0.062310502 -0.07886804 -0.0031438621 0.11946381 0.00023401348 0.14121954 -0.14926286 -0.01791086
-0.009782284 -0.09309296 0.08469248 0.12419829 0.042700347 0.1555826 0.088753596 -0.13852434
-0.09095208 -0.15211087 0.13911873 -0.014503219 0.313039 -0.051213834 -0.09673196 0.15990943

coefficient1 f4 [200, 150]
00000000: daf3 3803 3914 cd02 2217 b903 3979 c602
00000010: 84cd 2083 5f0c 4d83 ca81 4583 28ed 8282
00000020: 0c0c 2e03 6cbd a182 a9b9 2b03 4776 3783
00000030: 51d3 b002 3eee 6f83 23de 1c02 9139 ff02
00000040: 6828 5983 9a47 8b82 ee03 ec82 eb32 de83
00000050: 94ce 1b83 269e 4582 bf08 4f82 b661 6802
00000060: 1af1 2d03 0e14 8783 e8af 6883 da23 1f83
00000070: c6b4 8602 9ce0 8d83 9464 d803 8853 b180
00000080: ae3b 8e03 4ce5 3603 e2f3 0883 5c47 aa83
00000090: 08f1 bc02 70f3 4801 3083 4703 59d6 8502
000000a0: 017a c303 73e6 a103 c073 9d02 eda8 8382
000000b0: d65d 8683 d395 8383 c281 0483 02e5 d981
000000c0: ce8e d303 c6fe 1683 f02a ad02 04c2 a882
000000d0: 912c 9882 cb3d a602 f977 d502 18f4 7702
000000e0: 48e4 f102 c571 3d83 d3d2 b403 c46c c202
000000f0: b57c 9383 c9f3 0403 3f9d 5d03 7c7f cf82
00000100: 9f20 cb02 2ea0 d902 0a37 ab83 1a6a 2183
00000110: d44b 4c83 7fb5 a203 68a0 f602 d813 a102
00000120: 01f5 2003 16a0 a082 c672 8083 b618 d282
00000130: b528 8483 ba5d a182 60e0 0a00 cda0 b782
00000140: 2a81 eb82 ae84 2203 dc8d cd03 cc58 c003
00000150: b46b 3303 d802 1b83 71e1 1c83 f686 b003
00000160: 446c 6f81 20b8 f781 d04d 9703 6aa6 d403
00000170: 2959 b583 3e1e e502 3cf9 6003 c88f 1f83
00000180: 69c7 a681 b868 1603 0fec 3d82 962f 6e03
00000190: 3276 e382 5208 5c83 1e96 3603 0c7f 8a02
000001a0: d9e0 4d83 4ac9 a882 1465 2d01 dcfc b002
000001b0: 8830 9301 4d13 2383 7890 b402 e0e2 2583
000001c0: e023 7381 5514 d103 6d3b 8702 22b5 8002
000001d0: c1bf de83 f6b7 7802 ac68 eb81 6bd7 9b82
000001e0: eff0 3a82 ae80 2283 80ed 9a01 5254 c703
000001f0: 184c 3603 74a7 1502 3a83 ba03 2804 1682
00000200: 31e2 e403 3026 ba83 2c5f 4f83 485d f202
00000210: d405 c802 8393 5c83 ab56 3983 34d6 b102
00000220: 5a66 df03 9837 1183 b447 b681 1aac 8682
00000230: 325a 7f83 11a2 3d83 fbf4 b603 11ac da03
00000240: d557 8b03 5a55 d383 aeec 8d82 52bf e782
00000250: b0fb bc81 d777 e803 4022 a580 002c 1d3e
00000260: c50f d4bd 2da6 97bd b7f6 5e3d 7a13 1e3c
00000270: ea9e ae3d a209 8cbe 3699 7103 ec0c 2cbe
00000280: 69c7 cd3d c05a 5e03 ae3e 84bd bf9e 153a
00000290: 73c2 07af a0c9 943d ec5a 2dbd f0a8 e73d
000002a0: cc56 b7bd 8183 983e f71b 493e a67f 183e
000002b0: a94b 0f3d 096f fbbd cc46 e5bc 990f 8fbd
000002c0: 78c7 513e b939 6ebc 17c8 e73d 4079 363e
000002d0: e0d4 0fb9 19f5 fa3c 7b81 8daf 10e9 e1bc
000002e0: 3fb7 4f3d 332b 26be 44e8 83bd 8c06 3283
000002f0: 8f9b 2a3d c37f db3c b390 bebc 0818 1409
00000300: ac25 a131 6ef8 36be 3e94 ba3e 45da c003
00000310: 62f6 afb6 c746 853c 4270 01be 5cf2 9102
00000320: c881 473e b29e ab3d d666 7e3c b0e8 7d3e
00000330: 823c ab82 f691 7d3e 9bf9 8a3e cc9c e682
00000340: 2d3a 34be c955 8b3d 8e46 06bb 4990 ad81
00000350: 2549 af82 f2e5 d303 8e22 ed3c 288f b53c
00000360: d017 d6bc ca08 013e ee6b f402 2fe0 703e
00000370: 31f0 0ebe 48d6 eebd 9455 9e3d 0496 9d3e
00000380: 5bb5 c2bb b8fa 1cbe 29ee 2abd e89c 7603
00000390: 1dfb 9c3e b4c6 12bd 3020 583d a10d 23be
000003a0: 2204 c403 9690 1b3e 8be4 683e 420f 0383
000003b0: 8626 813d 8f75 2f3e 59d1 84be 2f63 023e
000003c0: b225 b23d f27c db02 1732 0982 1f19 a23d
000003d0: 8829 853e 6462 d8bd 1788 5fbc 5184 73be
000003e0: 19c5 1902 6855 3bbe 268c 17be dbd8 1fbe
000003f0: d31e cf03 0e6b 8683 af75 d5bd 3072 aa3d
5.435267e-37 3.013365e-37 1.0878634e-36 2.9163064e-37 -4.7255694e-37 -6.0258287e-37 -5.8042087e-37 -1.9237904e-37
5.1147833e-37 -2.3765547e-37 5.046551e-37 -5.3914642e-37 2.5982165e-37 -7.0509276e-37 1.152482e-37 3.7501924e-37
-6.3816953e-37 -2.0465312e-37 -3.467934e-37 -1.30596775e-36 -4.5787546e-37 -1.4518661e-37 -1.5210468e-37 1.707271e-37
5.11169e-37 -7.939191e-37 -6.8380603e-37 -4.6767056e-37 1.979329e-37 -8.338803e-37 1.2718431e-36 -1.6284848e-38
8.359712e-37 5.3748213e-37 -4.024677e-37 -1.0008085e-36 2.7762462e-37 3.6908856e-38 5.863144e-37 1.9665623e-37
1.1489081e-36 9.515638e-37 2.3135514e-37 -1.9345679e-37 -7.897356e-37 -7.733886e-37 -3.894027e-37 -8.004182e-38
1.2434252e-36 -4.4373504e-37 2.544471e-37 -2.479674e-37 -2.2359973e-37 2.4426975e-37 3.1366398e-37 1.8216746e-37
3.5542794e-37 -5.567271e-37 1.0627852e-36 2.8568166e-37 -8.668515e-37 3.9071165e-37 6.5126573e-37 -3.0489089e-37
2.9846893e-37 3.1977223e-37 -1.0063113e-36 -4.7435446e-37 -6.003726e-37 9.563174e-37 3.623852e-37 2.3668214e-37
4.7301025e-37 -2.3601772e-37 -7.5495145e-37 -3.087091e-37 -7.767609e-37 -2.371062e-37 9.98846e-40 -2.6981728e-37
-3.4604283e-37 4.775983e-37 1.2081386e-36 1.13051325e-36 5.272701e-37 -4.555367e-37 -4.6103074e-37 1.0375336e-36
-4.3975044e-38 -9.0997677e-38 8.892847e-37 1.2498447e-36 -1.0658694e-36 3.3665884e-37 6.611379e-37 -4.6890953e-37
-6.126491e-38 4.420125e-37 -1.3953273e-37 6.999654e-37 -3.3422493e-37 -6.466174e-37 5.365732e-37 2.03502e-37
-6.05022e-37 -2.4800916e-37 3.1847602e-38 2.600601e-37 5.406891e-38 -4.792355e-37 2.6531544e-37 -4.874958e-37
-4.465779e-38 1.2288584e-36 1.9870576e-37 1.8911875e-37 -1.3092012e-36 1.8272957e-37 -8.6475563e-38 -2.2898847e-37
-1.3734266e-37 -4.775524e-37 5.691146e-38 1.1715528e-36 5.3572344e-37 1.0994848e-37 1.0962226e-36 -1.1021452e-37
1.3452567e-36 -1.0940865e-36 -6.0941085e-37 3.5612245e-37 2.9390704e-37 -6.4821524e-37 -5.4466104e-37 2.613076e-37
1.3130261e-36 -4.267549e-37 -6.695913e-38 -1.9788312e-37 -7.5041304e-37 -5.572815e-37 1.0753243e-36 1.2852393e-36
8.189851e-37 -1.2421061e-36 -2.0853935e-37 -3.4052212e-37 -6.9421447e-38 1.3663248e-36 -1.5165143e-38 0.15348816
-0.1035457 -0.074047424 0.054434504 0.009648198 0.08526404 -0.273511 7.099941e-37 -0.16801804
0.100478 6.5344112e-37 -0.06457268 0.0005707554 -1.2347261e-10 0.072650194 -0.042323038 0.11311519
-0.08952102 0.2978783 0.19639574 0.14892444 0.034984265 -0.12277038 -0.02798786 -0.06985397
0.20486248 -0.014540129 0.11317461 0.1781969 -0.00013716845 0.03063445 -2.5739752e-10 -0.027576953
0.050711866 -0.16227417 -0.064407855 -5.2317014e-37 0.04165226 0.02679432 -0.023262357 1.7826151e-33
4.6899995e-09 -0.17868206 0.36441225 1.1334858e-36 -5.244089e-06 0.0162691 -0.12640479 2.1444943e-37
0.19483101 0.08379878 0.015527448 0.24795794 -2.5160922e-37 0.24762711 0.2714356 -3.388546e-37
-0.17600317 0.068034716 -0.0020488831 -6.37572e-38 -2.5755922e-37 1.2454258e-36 0.028947141 0.022162989
-0.026134402 0.12601009 3.5914526e-37 0.23523019 -0.13958813 -0.11661965 0.077311665 0.30778515
-0.0059420294 -0.15330017 -0.041731033 7.247302e-37 0.30660334 -0.03583403 0.05276507 -0.15923168
1.15207935e-36 0.15191874 0.22743432 -3.8514955e-37 0.06306176 0.17134689 -0.2594097 0.12733148
0.08698596 3.2250873e-37 -1.0079545e-37 0.07914948 0.26008248 -0.105656415 -0.013643286 -0.23780943
1.1297229e-37 -0.18294299 -0.14799556 -0.15610068 1.2173443e-36 -7.900391e-37 -0.10422837 0.08322561

intercepts1 f4 [1, 150]
00000000: 0a86 b1bd c30e ef3d dc23 243d 48ae a93c
00000010: 86ae ec3c 30d7 d53d 236d cc3c 2c34 823d
00000020: 3e99 04be 6385 eb3d 7343 803d 0c5d 05be
00000030: 2ed2 5ebd a396 a9bc e7eb e6bd c77e c33d
00000040: 7452 85bd 22fd ea3d a39c 053d 94cf 2d3e
00000050: 797f 023e b9a0 0d3d 710b 963b 43d6 e63c
00000060: 32fe 98bd 3a24 b1bc 57ee c33d af17 bd3d
00000070: 4486 f73d 6bbd e33d 3101 58bd 2939 06bc
00000080: 92ba 6fbd b4a8 d1bd fd51 3e3d 2a66 783d
00000090: bf41 5dbd db0b 8cbd 5a99 a03b 3c6e 243d
000000a0: 4be8 0f3e 6a39 c9bb a774 39bd 7f23 c23d
000000b0: bf73 cf3d e842 adbd 880d 7f3c 0b6c d4bd
000000c0: 9bfc 3abd 716f 8cbd 02f0 2b3d 08a6 8e3d
000000d0: 8c39 ca3b 8af2 bf3d c2e9 2d3d b182 a8bd
000000e0: b953 f83c d139 cdbd aa68 b73c 9d94 e93d
000000f0: e490 453d d959 14bb d20d 3dbd 3df1 cebd
00000100: 0694 38be cde2 30be c34d 92bd 656a df3d
00000110: bd6f aebd 8804 d03d e6f7 6cbd a397 563d
00000120: 5358 e8bc 2836 123e cc19 903c 8c1c adbd
00000130: 27ba db3d a1dc e1bd 76f2 2d3d 6ed0 f3bc
00000140: 7a16 97bd 7432 dcbd 548f 91bc 7b65 0a3e
00000150: 9d9d af3d 6631 a3bd 9a9b 9ebd 22c5 e4bc
00000160: 7e66 a13c 2fd9 38bc 474c e13d 0bff edbd
00000170: 1cb4 abbd 8932 88bd 9f1e dc3d d3b6 193c
00000180: aaef 6f3c 80f8 183e f523 02be 30e0 993d
00000190: af85 003e 7c0d 883d 08a7 11be f533 67bc
000001a0: 16fa 06bd 9a0c 223d c223 0a3e 321d bd3d
000001b0: e746 273e 91f1 f33c b450 b93d 1989 bbbd
000001c0: 287f b33d e529 5c3d 44f8 d63d b047 05be
000001d0: 5748 4b3d baf6 01bd 5735 bebd d9a7 103c
000001e0: 9496 a0bd a492 183e 221e 603d f6be 50bb
000001f0: 6fc5 d4bc 7263 e63d 1e15 05be 8005 d6bd
00000200: 32e7 9a3d b644 16bd ca65 a43d bb3a c73d
00000210: ad1b bbbd 3263 1bbd a87a 813d b4dd e4bd
00000220: 5cfd 3dbc bbb4 b6bd 88ca 96bd 09a4 dabd
00000230: 6f9a b6bd 53d3 76bc 7838 84bd 2935 d6bd
00000240: dded 0b3e c98f 533e 0de7 ea3d 303c 2cbc
00000250: 318b bdbc db47 4ebd
-0.08668144 0.116727374 0.04007326 0.020712987 0.028891813 0.104414344 0.024954384 0.06357607
-0.12949082 0.11500051 0.06262865 -0.13023776 -0.05439966 -0.020701712 -0.112754636 0.09545665
-0.06509867 0.114740625 0.032620084 0.16973716 0.1274394 0.034577105 0.0045790006 0.02817834
-0.07470359 -0.02162372 0.09566944 0.09233033 0.12086156 0.11120113 -0.05273551 -0.008192339
-0.058527537 -0.10237256 0.04646491 0.060644306 -0.05401778 -0.06838199 0.0049010934 0.04014419
0.14053456 -0.0061408775 -0.045277264 0.094794266 0.10129499 -0.08460027 0.015567191 -0.1037217
-0.04565106 -0.06857193 0.041976936 0.06965262 0.006171411 0.093724325 0.042459257 -0.082280524
0.03031336 -0.10020793 0.022388775 0.11405299 0.04823388 -0.0022636561 -0.04615576 -0.10104606
-0.18025216 -0.17274018 -0.07143738 0.10908965 -0.08517406 0.10157114 -0.057853602 0.052390706
-0.028362429 0.14278471 0.017590426 -0.084527105 0.10728865 -0.1102841 0.042467557 -0.029762473
-0.07377334 -0.10751811 -0.01776854 0.13515274 0.08574984 -0.079684064 -0.077445224 -0.027926032
0.019702192 -0.011282249 0.11000877 -0.11620911 -0.083839625 -0.06650264 0.10748028 0.009381968
0.014644543 0.14938545 -0.12709029 0.075134635 0.12550996 0.06643197 -0.14223874 -0.014111509
-0.032953344 0.0395628 0.13490203 0.09234084 0.16335641 0.029778274 0.09048596 -0.09157009
0.087644875 0.05375089 0.10496572 -0.13015628 0.049629536 -0.031729437 -0.092875175 0.0088290805
-0.078412205 0.14899689 0.054716237 -0.0031852103 -0.02597305 0.112494364 -0.12996337 -0.10450268
0.07563628 -0.03668662 0.08027227 0.09727999 -0.09136138 -0.037936397 0.06322223 -0.11175099
-0.01159605 -0.0892119 -0.073628485 -0.106758185 -0.089161746 -0.015065032 -0.06456083 -0.10459358
0.13664956 0.20660318 0.11469851 -0.010512397 -0.02313766 -0.050361495

coefficient2 f4 [150, 100]
00000000: d403 0803 4201 c983 0f13 2602 6a6e d782
00000010: 8d57 8583 0227 0d03 c072 d103 dcb0 3703
00000020: 58db 9783 10a5 5782 a3f4 3182 e00e 8301
00000030: 366a 1d83 aee1 b583 d459 b503 8598 0503
00000040: 8ebf 0503 ab36 8003 c823 c083 cffa 2e03
00000050: f570 1203 c680 d883 a01b f302 9ac8 3a83
00000060: 23b1 3503 31b2 1303 4ffa 0a03 a21d 2483
00000070: 7a0d 1783 cd19 7582 a86f a603 a16b 6783
00000080: 47c4 c282 cd10 2b03 31dc 4483 f9de 0883
00000090: 9ebb d182 ac9f d703 82f1 a603 0634 8303
000000a0: 28df 9a03 e129 a601 216b ad02 a954 8503
000000b0: 725e f482 2599 d582 77d2 6103 7add c383
000000c0: 44c7 4003 18ef a582 74ce 8f02 ed75 eb83
000000d0: 934b 3b03 7539 9c83 f727 a583 d8e4 e603
000000e0: e86a 0403 b697 3d03 4f05 cc03 42c4 bf81
000000f0: b1bf 3103 0678 1283 48ef 9480 99f0 fc02
00000100: 7652 4603 aaf7 6603 19ae 3603 94d2 9602
00000110: f022 0800 4da2 ed82 fe9c e003 ef4f 4903
00000120: 7856 c283 0e2a 0d03 83ff d802 c074 a281
00000130: 8afb bb82 8480 f402 5aa1 f902 cac8 a002
00000140: 10e7 a581 c876 0502 6a23 d302 2ad7 f681
00000150: 65ce 8482 265e 5603 8082 1301 a73f 3983
00000160: cab3 ca83 7bdb ea02 ceae ba82 f2cd ca81
00000170: bc27 4803 cbd1 5983 cf4a 1d83 0c18 5983
00000180: 20f3 1902 c044 1c83 94c5 c482 048b c083
00000190: 3610 da83 b600 a6bd a9c2 bf3d 864f e4bd
000001a0: 8413 22be a51c 5b82 cf3d 0cbe 46ef e03d
000001b0: 9cb3 053e 2ecb e4bb 6cd2 bdbd 7eca 3b3a
000001c0: e531 f9bd 73fd d1bc 9454 393e 5b53 263e
000001d0: 2dfe 2082 20a5 afbb c62b a2bd 85af e43d
000001e0: 870f 4e3e 54fc a502 fdd3 1cbd 4f41 373d
000001f0: 3176 d63c d2ad b6bd 5622 bbbd fdd4 193e
00000200: b56c 19be 5da3 f7bd 65a8 ae3d 2482 ecbc
00000210: 0064 08be d104 05bd a8b4 c601 700e 083e
00000220: e7df 993d 2f7c 1902 35c1 74bd 5209 9fbc
00000230: bb15 fd3d e0d9 10be 1d8c 34bd c290 9fbc
00000240: 1f40 b683 3340 a33d d84f c53d 8bc3 013e
00000250: cb17 423d 74d0 a63e 5ed1 923d 62b2 72bc
00000260: a807 f3bc fc43 82bd 7d97 ab3d 7688 d5bd
00000270: 3215 e8bd b089 ef3b 6ea0 0e3d a189 1203
00000280: 8a52 353d 7aec dcba c2df 9a3d 6700 783d
00000290: 48ef 3d3d 92fb e23d adcf 883d 7c26 abbd
000002a0: 01e0 b53c c8fb ce3d a037 fe3d ccdb 103e
000002b0: 8c64 c7bc 45a8 043e 8f25 2bbd c025 2d3c
000002c0: 6358 3803 aaf7 b03d 9731 7dbd fd56 52bc
000002d0: 7d64 923d 8cb4 a0bd 698b 3703 90ee 1b3d
000002e0: c45a 0c3d 1963 19be 58b0 afbd 232e 473d
000002f0: c9d0 3403 bdb5 6fbc 7129 c4bd 652c 81bd
00000300: fd80 6e3d 4dad 8ebc 16b1 ebbd 4b05 123e
00000310: b5d9 083e 65ea 58bd c129 8e3c d174 f83d
00000320: 0e9a c103 22b5 e93d 3406 8d3d cc7a 7f3d
00000330: 52aa 323c 9c4f ea00 bf21 243d 43a3 d9bb
00000340: b5a7 82be 9229 a53c 1850 823b f7e9 a039
00000350: 2e4c cc3c a6ea 363c 44ba 173e 4138 dbbc
00000360: 2ac7 5602 0fdc 80b9 3872 533d 0f2f b8bd
00000370: 3bee 3fbe 0cac 7e82 f2be 0f3e 3d99 b1bd
00000380: 4ca9 aabd dfc5 f1bd 129b 3a3d 72a1 023d
00000390: 5008 41bd 986e 693b fa4c 1f3e 2c47 e43c
000003a0: 6c68 723c 7b5e 88bd 00f6 b900 f99c 613d
000003b0: 947d e0be 9d84 2403 b447 4abd 5cb4 fc3c
000003c0: 25ca 643d 711b 0d3e 2df1 9d3d bcc5 3c3e
000003d0: 6d4a 2f03 31d5 7f3c cba1 7abd ce19 143d
000003e0: 18f4 e93d 52da 993d 742f 473d 5f64 64ba
000003f0: 7f8d b53d 3ee2 16bd 1ef5 b13d e952 343b
3.9971202e-37 -1.1814007e-36 1.2201223e-37 -3.1654785e-37 -7.837138e-37 4.1480955e-37 1.2310261e-36 5.398189e-37
-8.925341e-37 -1.5843076e-37 -1.3074114e-37 4.8143145e-38 -4.6260077e-37 -1.0690037e-36 1.0658847e-36 3.926027e-37
3.930508e-37 7.535715e-37 -1.1292961e-36 5.142192e-37 4.303521e-37 -1.2724904e-36 3.5721497e-37 -5.4890767e-37
5.3394462e-37 4.340397e-37 4.0841895e-37 -4.8229285e-37 -4.439038e-37 -1.8007162e-37 9.782238e-37 -6.800835e-37
-2.8618396e-37 5.027167e-37 -5.785199e-37 -4.022277e-37 -3.0817477e-37 1.2673223e-36 9.812051e-37 7.711432e-37
9.102541e-37 6.103886e-38 2.5481554e-37 7.8364745e-37 -3.5906787e-37 -3.1385438e-37 6.636316e-37 -1.1511918e-36
5.6652475e-37 -2.4381804e-37 2.113046e-37 -1.3839133e-36 5.5041116e-37 -9.182047e-37 -9.707004e-37 1.3570725e-36
3.8914036e-37 5.5716264e-37 1.1991261e-36 -7.0443935e-38 5.2235676e-37 -4.3043324e-37 -1.3677491e-38 3.7166168e-37
5.828163e-37 6.787523e-37 5.3684847e-37 2.2161385e-37 7.47217e-40 -3.4917176e-37 1.320158e-36 5.916035e-37
-1.14221475e-36 4.1484452e-37 3.1885004e-37 -5.967693e-38 -2.7621557e-37 3.5926342e-37 3.6679873e-37 2.3625134e-37
-6.0942986e-38 9.805385e-38 3.102399e-37 -9.0674874e-38 -1.9514121e-37 6.2997025e-37 2.7093265e-38 -5.4439683e-37
-1.19137705e-36 3.4509185e-37 -2.7430577e-37 -7.44986e-38 5.882033e-37 -6.40114e-37 -4.622403e-37 -6.3798173e-37
1.1310438e-37 -4.59232e-37 -2.8913016e-37 -1.1316662e-36 -1.281661e-36 -0.08105604 0.093633 -0.111479804
-0.15827757 -1.60978e-37 -0.13695453 0.10983138 0.13056797 -0.0069822287 -0.092686504 0.00071636576
-0.1216772 -0.02563355 0.1809867 0.16242735 -1.1827888e-37 -0.0053602606 -0.07918505 0.1116629
0.2012311 2.43894e-37 -0.038288105 0.044740018 0.026179405 -0.08919872 -0.091374084 0.15022655
-0.14982875 -0.12091706 0.085282125 -0.02887065 -0.13319397 -0.032475296 7.299294e-38 0.13286757
0.07513409 1.1276304e-37 -0.05975457 -0.019413624 0.123576604 -0.14145613 -0.044078935 -0.019478206
-1.071172e-36 0.079712294 0.096343696 0.1267225 0.047385972 0.32580912 0.0716884 -0.014813038
-0.029666737 -0.06360623 0.083785035 -0.104264185 -0.11332168 0.007310115 0.034820966 4.3063534e-37
0.04426817 -0.0016855143 0.0756221 0.06054726 0.046370775 0.110831395 0.06680236 -0.0835695
0.02220154 0.10106617 0.124129534 0.14146346 -0.024339937 0.12954815 -0.041783866 0.010568082
5.4174203e-37 0.08640988 -0.06181487 -0.012838122 0.07148073 -0.078469366 5.39389e-37 0.038069308
0.03426625 -0.14979209 -0.08578557 0.048627984 5.313692e-37 -0.014630732 -0.09578217 -0.06307296
0.05822848 -0.01741662 -0.11508386 0.14259832 0.13364299 -0.05295791 0.017353894 0.12131656
1.137889e-36 0.114115015 0.06885949 0.062372968 0.010904865 2.1518065e-38 0.040071245 -0.0066417768
-0.25518575 0.020161424 0.003976833 0.00030691896 0.024938669 0.011164343 0.14817148 -0.026760222
1.5779394e-37 -0.0002457802 0.0516226 -0.08993351 -0.18743221 -1.8710348e-37 0.14037684 -0.08671806
-0.08333072 -0.11805319 0.045558043 0.031892247 -0.047127068 0.0035618898 0.15556708 0.027865969
0.014795404 -0.06658646 1.7077815e-38 0.05508134 -0.43845809 4.83475e-37 -0.049384788 0.03084772
0.055856843 0.1378 0.07712016 0.18434805 5.1513314e-37 0.015614794 -0.061189454 0.03615742
0.1142351 0.075123444 0.04862924 -0.0008712466 0.08864879 -0.036836855 0.086893305 0.0027515239

intercepts2 f4 [1, 100]
00000000: 1ab8 cbbc d5e4 36bd 1133 013e 98e8 b43d
00000010: 2d03 3a3d ba70 96bd 0b49 52bd 4f6d 623c
00000020: 6070 ff3d cb2d 43bd 317f 77bd 012f f7bd
00000030: d240 ee3d b8cf 5fbd 904e 003e 9776 683d
00000040: a720 f4bd afcb 20bc 6672 143e f855 1e3d
00000050: 0848 103e d2c8 09be 7e0d 3abd 7c22 ecbc
00000060: b15c 74bc 1374 bcbc b6d2 c03d 7064 5f3d
00000070: 6819 183e 8e5f f0bd 8d1d cabc 32ac bb3d
00000080: 6552 533d 3fbf 2d3d 712e 86bd d7f8 263e
00000090: 5ffb d43d 3b79 c4bd 19a4 043e 7743 15be
000000a0: c55d ac3d 4da6 16bd 5173 3dbd 6f78 8a3d
000000b0: 1005 d5bd 40ce a0bd aae0 eb3d 4dca cfbd
000000c0: 6aca 26be 2dd6 523e 938b 40bd b3cf f23c
000000d0: e61a 013e f968 6f3c 9d3d 2e3e 6988 bb3c
000000e0: 6018 a6bd 8342 f1bd 1651 cfbd ab87 0abe
000000f0: 483e 0fbd 4d9b a1bd a88e 2f39 5da9 a7bd
00000100: 95ff a23d b67a bebc f9e1 2f3d e204 9abd
00000110: c106 ed3d 9a9e 97bb cd7e e83d b8f6 87bd
00000120: 7763 013e 04f1 b53d c64d 9dbd 3aa0 0d3e
00000130: 8190 0cbe 0b2b adbd 4742 e83c 1fcf d13d
00000140: 1f1e 2bbd b693 10be cc05 f2bd 604a e3bb
00000150: fc3b 273d 1a7d 0b3e d862 af3c ad2a bc3d
00000160: a320 e1bd 82c2 e13d 00f2 583d d121 b93d
00000170: 4b7a de3c d5ba 043d 7ea9 113e 8537 743d
00000180: dd53 093e 2f2a 173e b1f2 7d3c db67 043e
-0.02486806 -0.044651825 0.12617137 0.08833426 0.045413185 -0.0734572 -0.05133919 0.0138200065
0.12472606 -0.047651093 -0.060424034 -0.12069512 0.11633457 -0.054641455 0.12529969 0.05675372
-0.119202904 -0.009814187 0.14496765 0.038656205 0.14089978 -0.13455513 -0.045423023 -0.028825037
-0.0149146775 -0.023004567 0.0941519 0.054539144 0.14853442 -0.117369756 -0.024672294 0.09163703
0.05159225 0.042418715 -0.06551827 0.16305862 0.10399508 -0.095934354 0.12953223 -0.14576517
0.084163226 -0.03677969 -0.046252552 0.06761252 -0.10401356 -0.07851839 0.11517461 -0.10146008
-0.16288152 0.20589514 -0.04700811 0.029640054 0.12607917 0.01461243 0.17015691 0.022892194
-0.08110118 -0.11780264 -0.10122888 -0.13528316 -0.034971505 -0.078909494 0.00016742444 -0.081866
0.07958905 -0.023251873 0.042940114 -0.075204626 0.11573554 -0.004627061 0.1135231 -0.06638855
0.12635599 0.08883861 -0.0768085 0.13830653 -0.13726999 -0.084554754 0.028351916 0.10244583
-0.041776773 -0.14118847 -0.11817512 -0.0069363564 0.04082869 0.13621941 0.021409437 0.09187827
-0.10992553 0.110234275 0.052965164 0.09039653 0.027157923 0.03240474 0.14224812 0.05962326
0.13410898 0.14762186 0.015499757 0.12930243

coefficient3 f4 [100, 1]
00000000: 4cba 3014 3054 bfbe b27d 8bbe 6877 26be
00000010: b2cb 603d 1b7d dc03 3f73 723e b94d a63e
00000020: 135c 433f 1f2e 3cbe d0be fe3c 4602 4238
00000030: 61e9 b13e 8be7 6dbe 2a46 69be cefe 9dbe
00000040: 8a28 6b83 54c8 c1bb 57f8 0bbf 229f 35bf
00000050: 8f31 073f b51c 3703 076e ea3e ebfe 9f3d
00000060: 03b1 e23e 890c 9f3c 2f5c 8dbe a015 88be
00000070: d480 a53e d561 bdbd ee6c bbbe d5c2 2e3e
00000080: aa09 a63d 60b5 d0be 43fd 5e07 f3ea d6be
00000090: a14e 7dbf 06ad c883 a86c 3ebe 8dc4 53bc
000000a0: 621b db3e 7ae5 623e ecd4 5a3e cc51 d8be
000000b0: 6eb3 9703 e4a4 33bf e369 cf3e 431b 833e
000000c0: ec24 03be d959 6a3f ac13 ba3e f8d3 22bc
000000d0: a21c 953e ad09 5e3d 322c b7be 9cfb 963e
000000e0: 6e60 aa3e 5077 ae3e bc39 da3e 9eb1 7c02
000000f0: 1d3b 9b3e f547 51bd 56d3 e33e 02a5 91be
00000100: 5087 1e3d 4e8b 2dbe 6348 15bf 6e0b bebe
00000110: 9f09 f33e 3a77 e53e 852a 2cbe f445 b3be
00000120: 30ca b83d f7d1 bc3e 26f4 c6be e03a 16bf
00000130: 3902 e083 670f 91be 00fd 3939 e76b fa3e
00000140: 6e5f 38be 5e44 933e 0197 ca0f d73c c83e
00000150: f539 7fbe fb65 9e3e d248 743e 9c9d 843e
00000160: 26ce be03 f277 9cbc 7554 cb3e 8a05 ca3e
00000170: f7b8 d7be ab50 213c fa2c c23e 6ec4 b8be
00000180: 1300 ba3e dd3b c3be a6c0 1e3b 5c68 833f
8.92247e-27 -0.37368917 -0.27244335 -0.16256487 0.05488176 1.2959161e-36 0.23676775 0.32481173
0.7631237 -0.18376969 0.031096846 4.625532e-05 0.34748366 -0.23232858 -0.22780672 -0.30858463
-6.910683e-37 -0.0059137736 -0.5467581 -0.7094594 0.52809995 5.381182e-37 0.4578707 0.078122936
0.44275674 0.019415157 -0.27609393 -0.26579 0.3232485 -0.092471756 -0.36606544 0.1706651
0.08107312 -0.40763378 1.6775851e-34 -0.41976127 -0.98948103 -1.1794668e-36 -0.18596137 -0.012925279
0.4279433 0.22157851 0.21370286 -0.42249906 8.916177e-37 -0.7017348 0.40510473 0.25606737
-0.12807053 0.91543347 0.36343133 -0.009938233 0.29123408 0.054208446 -0.35775906 0.29488838
0.33276695 0.34075403 0.42622173 1.856501e-37 0.30318537 -0.051094014 0.44497174 -0.28446203
0.038703263 -0.16947672 -0.5831358 -0.37118095 0.47468278 0.44817525 -0.16813095 -0.35014307
0.09022939 0.3687894 -0.38858145 -0.58683586 -1.3166047e-36 -0.28332064 0.00017737225 0.48910448
-0.18005154 0.28763098 1.9976902e-29 0.39108917 -0.24924453 0.3093718 0.23855904 0.25901496
1.1214526e-36 -0.019100163 0.39712873 0.3945735 -0.42133304 0.009845893 0.3792494 -0.36087364
0.36328182 -0.3813161 0.0024223714 1.0266223
