app/src/main/res/raw/mobile_classifier_apple.onnx (onnx, 239140 bytes, 9 tensors)

Mu_Mulcst f4 [68]
2.3912787 2.5261178 2.417396 2.3344717 2.2976131 2.274721 2.268074 2.2339916
2.1761937 2.1402543 2.0913937 1.9942214 1.8606102 1.7512845 1.6754146 1.6290843
1.5984228 1.5828428 1.566433 1.5352436 1.4959756 1.4630054 1.4380603 1.4221143
1.414799 1.4173269 1.4129757 1.4093896 1.4345124 1.4557418 1.5052254 1.5633601
1.5353875 1.3734363 1.280964 1.2474331 1.2301764 1.2279532 1.2303811 1.2202486
1.2101196 1.1923982 1.1928474 1.185945 1.1770967 1.1681999 1.1642234 1.1617205
1.1643118 1.1864007 1.1946026 1.2023222 1.2100766 1.2133193 1.2216393 1.2288682
1.2405864 1.2487292 1.2575282 1.2789983 1.2972239 1.3275851 1.3722253 1.4056519
1.4241749 1.4385883 1.4436712 1.4482586
00000000: b60a 1940 eaab 2140 9eb6 1a40 fc67 1540
00000010: 180c 1340 0795 1140 2028 1140 b8f9 0e40
00000020: c246 0b40 edf9 0840 65d9 0540 a642 ff3f
00000030: 7a28 ee3f 172a e03f fc73 d63f d685 d03f
00000040: 1e99 cc3f 989a ca3f e080 c83f dd82 c43f
00000050: 217c bf3f c343 bb3f 5c12 b83f d707 b63f
00000060: 2218 b53f f86a b53f 63dc b43f e166 b43f
00000070: 1a9e b73f bf55 ba3f 3aab c03f 2f1c c83f
00000080: 9487 c43f c3cc af3f a1f6 a33f e3ab 9f3f
00000090: 6c76 9d3f 922d 9d3f 217d 9d3f 1b31 9c3f
000000a0: 33e5 9a3f 81a0 983f 39af 983f 0ccd 973f
000000b0: 1bab 963f 9387 953f 4605 953f 42b3 943f
000000c0: 2b08 953f fadb 973f bde8 983f b2e5 993f
000000d0: cae3 9a3f 0c4e 9b3f ad5e 9c3f 8e4b 9d3f
000000e0: 89cb 9e3f 5cd6 9f3f aff6 a03f 37b6 a33f
000000f0: 6f0b a63f 4fee a93f 14a5 af3f 67ec b33f
00000100: 5d4b b63f a923 b83f 38ca b83f 8a60 b93f

Ad_Addcst f4 [68]
-0.104896024 -0.06330464 -0.029552812 -0.014406642 -0.004348626 -0.0041384194 -0.0012599503 0.0
0.0 0.0 0.0 0.0 0.0 0.0 0.0 0.0
0.0 0.0 0.0 0.0 0.0 0.0 0.0 0.0
0.0 0.0 0.0 0.0 0.0 -0.004010911 -0.0061455504 -0.0068220953
-0.008576353 -0.010032564 -0.010927884 -0.01065827 -0.010688522 -0.010724111 -0.011783499 -0.011563801
-0.01283539 -0.014871226 -0.015628383 -0.019432532 -0.02164358 -0.024767956 -0.027171781 -0.029928347
-0.03108241 -0.033433296 -0.034697823 -0.036054574 -0.038198397 -0.040764146 -0.04189629 -0.042624585
-0.04565382 -0.046442084 -0.04740364 -0.048851784 -0.04927677 -0.04940177 -0.048487734 -0.05007896
-0.053880975 -0.05951996 -0.065594405 -0.072607286
00000000: bad3 d6bd dda5 81bd bd18 f2bc d609 6cbc
00000010: eb7e 8ebb 949b 87bb eb24 a5ba 0000 0000
00000020: 0000 0000 0000 0000 0000 0000 0000 0000
00000030: 0000 0000 0000 0000 0000 0000 0000 0000
00000040: 0000 0000 0000 0000 0000 0000 0000 0000
00000050: 0000 0000 0000 0000 0000 0000 0000 0000
00000060: 0000 0000 0000 0000 0000 0000 0000 0000
00000070: 0000 0000 f66d 83bb 9d60 c9bb e28b dfbb
00000080: d583 0cbc a05f 24bc de0a 33bc 06a0 2ebc
00000090: e91e 2fbc 2fb4 2fbc 940f 41bc 1976 3dbc
000000a0: 874b 52bc 71a6 73bc 1807 80bc f930 9fbc
000000b0: e14d b1bc 2be6 cabc 5b97 debc 4b2c f5bc
000000c0: 8aa0 febc 5af1 08bd 4e1f 0ebd f6ad 13bd
000000d0: ec75 1cbd 4ef8 26bd 729b 2bbd 1e97 2ebd
000000e0: 80ff 3abd 0e3a 3ebd 522a 42bd cf18 48bd
000000f0: 70d6 49bd 8359 4abd 139b 46bd 981f 4dbd
00000100: 4cb2 5cbd 34cb 73bd 5c56 86bd 21b3 94bd

coefficient f4 [68, 200]
0.33692375 0.22604142 -0.28290656 0.034099914 0.09790038 0.31105214 -0.11644658 -0.00091471017
3.4482626e-38 -0.4280513 0.06795485 -0.00027729236 5.00763e-37 0.060041726 -9.155799e-37 0.07516059
0.03597811 -0.20402268 0.07701087 0.22658311 -0.30531216 0.057663668 -0.0061244024 2.1587514e-37
-3.3278943e-31 -3.076978e-37 -0.05785624 -0.06289459 -2.4722026e-37 0.16711676 -0.14779477 5.974187e-37
-0.20616837 -0.4467092 0.07738675 0.02374493 0.25970393 -0.05673068 9.942633e-37 -0.36553594
-0.06084833 0.068174064 -0.03789632 -0.18619849 -0.29979515 -0.18960534 1.8711559e-37 0.23000056
-0.5444632 -3.9326036e-37 0.29684752 0.25138447 0.27082357 0.27625462 -0.2650135 0.059036776
-0.24323606 0.35182709 -0.10288288 0.12838158 8.812971e-38 -0.1725244 -0.1977527 0.2675151
-0.27190045 0.30866113 0.30006906 0.25285915 -0.023907708 -0.065139495 -0.15476303 0.22017774
0.26574916 0.24599448 0.3274964 -0.08101323 0.0052175024 0.4647802 0.13291594 7.593412e-37
-8.9945e-37 0.49132112 4.2787005e-37 -0.27292588 -0.2129148 0.07396032 -0.12763947 0.30329955
-2.8057928e-37 0.01808215 -0.103841126 1.7887874e-37 -0.40993014 0.14025338 0.13254192 -0.11203771
0.0607762 -0.0012621467 0.05020249 0.055993468 1.8180442e-37 0.44735578 -0.42500138 -2.6641917e-37
2.1848702e-08 -0.059261117 0.1108076 3.244216e-37 -0.0816121 0.38892603 0.09206197 0.4030454
0.28408822 -0.12137485 4.920176e-37 0.21886833 -0.17903215 -0.19160026 -2.03099e-40 0.56275797
-4.0940856e-37 -0.08866197 -0.14391519 0.3386889 -0.064120255 -0.19807382 -0.0411982 0.012029434
-0.3833065 -1.1220634e-37 7.603774e-37 -4.1037896e-05 -7.2903277e-37 3.6510982e-37 0.030554168 -0.12501162
-0.111723036 0.22258344 0.25806126 -7.292256e-39 -0.031970643 -0.24702701 -3.5374632e-37 0.04164781
-0.2526087 0.07304636 -0.06934719 -0.1664695 -0.3657229 0.14189525 -3.5488666e-22 -0.055763796
0.15500528 0.027690457 0.24733321 0.029596457 -0.249087 3.4891641e-37 -0.039744716 0.09544934
0.26609832 3.77725e-39 1.5297377e-37 -0.0784037 -0.13796404 -0.449683 0.43088794 -0.04065102
0.44946122 0.020242034 7.1637534e-37 -4.602066e-38 -0.42108762 0.08635066 0.14342615 -0.04761164
0.077481635 -0.0024788887 -0.19579451 0.52909654 0.19279146 -0.1526645 -0.27862364 3.073444e-37
0.33397135 -0.43430883 -0.041544426 -0.014110027 -6.289598e-38 -0.2781845 0.06795625 0.017025415
-0.34873658 -0.28530145 0.4516848 -0.008863059 -0.026197 -0.060960945 -0.00847533 -0.3118489
0.23003352 -0.014534346 -0.13403516 -0.07624569 -0.15003806 0.064117745 0.02176053 0.0073713474
1.1275187e-36 -0.2952708 0.091482006 0.000109012595 6.5302136e-37 0.06533434 -4.4885966e-37 -0.110470355
-0.10142761 -0.20340152 -0.047828823 0.1552319 -0.20538755 0.10643006 -0.014654387 3.5245342e-37
-7.092729e-37 3.5710724e-37 -0.3305539 0.017409254 1.15811395e-36 0.033102177 0.026888577 3.0990189e-37
-0.068117574 -0.23257837 0.035661757 -0.0048083467 0.008227067 -0.18963155 9.036462e-38 -0.32872066
-0.092670955 -0.039880943 0.058554303 0.111201026 -0.25359708 -0.007178978 -8.419279e-37 0.017839245
-0.30798295 4.6637894e-37 0.19126646 0.3374289 0.0401432 0.092325784 -0.19188985 -0.07404424
00000000: 4581 ac3e 6777 673e 21d9 90be 5aac 0b3d
00000010: ff7f c83d 3a42 9f3e 8b7b eebd 29c9 6fba
00000020: c4bd 3b01 8a29 dbbe ea2b 8b3d 8d61 91b9
00000030: 9c66 2a03 50ee 753d 21c7 9b83 cced 993d
00000040: c85d 133d 52eb 50be e0b7 9d3d 6705 683e
00000050: e051 9cbe bd30 6c3d 36af c8bb c1ea 9202
00000060: 21fe d78c 8468 d182 aafa 6cbd e1ce 80bd
00000070: d83f a882 a820 2b3e 8357 17be 824a 4b03
00000080: cd1d 53be 11b7 e4be f27c 9e3d ba84 c23c
00000090: eaf7 843e 6e5e 68bd 462a a903 8727 bbbe
000000a0: 193c 79bd d89e 8b3d 2c39 1bbd d1aa 3ebe
000000b0: c07e 99be e727 42be 44b0 7e02 4485 6b3e
000000c0: f161 0bbf cfd1 0583 66fc 973e 77b5 803e
000000d0: 63a9 8a3e 3f71 8d3e d9af 87be 8cd0 713d
000000e0: e012 79be ae22 b43e 42b4 d2bd 7676 033e
000000f0: 72e9 ef01 3caa 30be af7f 4abe bdf7 883e
00000100: 8936 8bbe d508 9e3e a7a2 993e c176 813e
00000110: 19da c3bc db67 85bd 337a 1ebe 4676 613e
00000120: 4610 883e fae5 7b3e 9cad a73e 44ea a5bd
00000130: 95f7 aa3b acf7 ed3e 1e1b 083e f931 8103
00000140: 9308 9983 718e fb3e bd98 1103 f1bc 8bbe
00000150: 5606 5abe 8278 973d ecb3 02be 144a 9b3e
00000160: cef3 be82 0421 943c a8aa d4bd 257a 7302
00000170: 5de2 d1be 959e 0f3e 12b9 073e 0774 e5bd
00000180: 77f0 783d 9e6e a5ba 20a1 4d3d 6859 653d
00000190: 9875 7702 d10b e53e c899 d9be c450 b582
000001a0: cead bb32 c9bb 72bd 18ef e23d 37ca dc02
000001b0: 3f24 a7bd 5021 c73e fc8a bc3d f75b ce3e
000001c0: 0374 913e 6193 f8bd c76c 2703 051f 603e
000001d0: 3454 37be dc32 44be 2836 0280 e810 103f
000001e0: 8450 0b83 6894 b5bd 815e 13be a268 ad3e
000001f0: 7b51 83bd ddd3 4abe 72bf 28bd 1a17 453c
00000200: c040 c4be 34ba 1882 1b5f 8103 1b20 2cb8
00000210: b613 7883 1a7b f802 bc4c fa3c 0c03 00be
00000220: 0ccf e4bd eaec 633e 9b20 843e d867 4f80
00000230: a6f3 02bd a6f4 7cbe 4dbf f082 e596 2a3d
00000240: ed55 81be 5499 953d e605 8ebd fb76 2abe
00000250: 0840 bbbe fd4c 113e 0d84 d69b 9468 64bd
00000260: b4b9 1e3e 19d7 e23c eb44 7d3e 4574 f23c
00000270: aa10 7fbe d075 ed02 5bcb 22bd f27a c33d
00000280: 0a3e 883e 7021 2900 9437 5002 1e92 a0bd
00000290: 7246 0dbe da3c e6be 589d dc3e af81 26bd
000002a0: c81f e63e 9fd2 a53c 18c5 7303 708f 7a81
000002b0: cc98 d7be 9dd8 b03d 4ede 123e 6c04 43bd
000002c0: b1ae 9e3d da74 22bb 5b7e 48be df72 073f
000002d0: 206b 453e 1554 1cbe c2a7 8ebe f22a d102
000002e0: 4bfe aa3e ba5d debe 7d2a 2abd be2d 67bc
000002f0: 1a38 ab81 336e 8ebe a52c 8b3d e278 8b3c
00000300: 9a8d b2be 0813 92be 3b43 e73e 5d36 11bc
00000310: 179b d6bc 2fb2 79bd 1cdc 0abc a9aa 9fbe
00000320: e88d 6b3e 7721 6ebc 8340 09be b326 9cbd
00000330: 94a3 19be 2a50 833d 2443 b23c 588b f13b
00000340: 5ed6 bf03 bc2d 97be eb5a bb3d b19d e438
00000350: 2f36 5e03 03ce 853d 31bd 1883 483e e2bd
00000360: 47b9 cfbd 7d48 50be 28e8 43bd 1cf5 1e3e
00000370: 1d51 52be 01f8 d93d f418 70bc 0cde ef02
00000380: 625a 7183 db08 f302 5c3e a9be da9d 8e3c
00000390: fa0a c503 2696 073d 6f45 dc3c 86e8 d202
000003a0: 3a81 8bbd 0629 6ebe 1012 123d 568f 9dbb
000003b0: d2ca 063c c62e 42be f3fe f501 134e a8be
000003c0: 45ca bdbd 335a 23bd a3d6 6f3d 5dbd e33d
000003d0: 7ad7 81be a23d ebbb 223f 8f83 9c23 923c
000003e0: f1af 9dbe 56b3 1e03 5bdb 433e 7bc3 ac3e
000003f0: 326d 243d 4d15 bd3d c67e 44be 82a4 97bd

intercepts f4 [1, 200]
-0.24582663 0.054272223 -0.12531649 0.1215826 0.046591062 -0.061765905 0.2932024 0.37050802
-0.11534107 -0.03799804 0.05408364 -0.030857364 -0.035330262 0.07179322 -0.05262241 0.06945904
0.13367169 -0.14506511 0.019084683 0.22820137 0.29760996 -0.12795332 0.27464262 -0.111096084
-0.072047085 -0.10741108 0.25132072 -0.055578873 -0.1179483 -0.021244029 -0.010864346 -0.04000218
0.12223326 -0.12500809 0.049870823 -0.060970377 -0.0514173 0.3250914 -0.090449505 0.18099014
0.1703313 -0.007425895 -0.1381559 0.04726633 0.0833249 -0.086285196 -0.1226911 -0.13693342
-0.032195766 -0.03491867 -0.33741206 0.25365555 -0.25215313 0.19251469 -0.031393565 -0.0018452089
0.08453611 -0.11407762 0.3505981 -0.24620153 -0.011212812 0.20019397 -0.054594498 0.14938837
-0.18773985 0.0111090755 0.0751959 -0.009458246 -0.051678374 0.022853538 0.24949396 0.059536316
-0.1258134 0.0075569623 0.07461176 -0.111310564 0.058140956 0.2083292 0.14580925 -0.06514701
-0.08014241 0.25845823 -0.13777019 0.16001283 0.17950723 0.39142543 0.064282574 -0.0030056422
-0.08357405 -0.07242251 0.072100975 -0.12786722 0.028277773 0.010905516 0.09520046 0.17862791
-0.22427095 -0.067389205 -0.015195672 -0.15048414 -0.11068936 0.15952492 -0.0003127418 -0.037423622
-0.1473848 -0.02148347 -0.019033238 -0.107635096 0.017078083 0.0666082 0.1477196 -0.14529218
-0.22360398 0.20880294 -0.07271109 -0.10559607 0.07757416 -0.0900149 -0.09724457 0.10751236
-0.13761291 -0.11378289 0.09077375 -0.21943831 0.24382123 -0.15876523 0.020540623 0.22099361
-0.018944431 -0.08055425 -0.13803178 -0.033748504 -0.118746184 -0.0750604 -0.0036395416 -0.3546906
0.021694962 -0.031920545 -0.16820356 -0.04405374 -0.11037145 0.3491094 -0.12608497 -0.27417034
0.21933706 -0.06109217 -0.06434003 0.19325294 0.022312459 0.17896545 -0.011659928 0.087469205
0.16506967 -0.06466236 -0.14266439 0.15894145 0.1360768 -0.12996669 0.39218798 0.17281033
0.047637973 -0.12228287 -0.07477074 0.02513135 0.09002927 0.085371464 0.10427942 0.044507466
0.1760799 0.09322463 -0.04548346 -0.103123985 -0.33449098 -0.010225768 0.17873949 -0.32530513
0.1028561 -0.12784074 -0.00313299 -0.037463326 -0.060458098 -0.06555838 0.1323487 -0.060403697
0.038196914 0.049328506 0.07274789 0.049581498 -0.092610255 -0.05637704 0.052940823 -0.0698262
-0.23396495 0.03984548 0.19284372 0.07936853 -0.09765036 -0.1594133 -0.30695227 -0.3740416
00000000: fab9 7bbe 8d4c 5e3d f752 00be 4c00 f93d
00000010: 45d6 3e3d 3ffe 7cbd a01e 963e 3ab3 bd3e
00000020: f037 ecbd d5a3 1bbd cf86 5d3d 95c8 fcbc
00000030: 77b6 10bd 5308 933d 998a 57bd 8b40 8e3d
00000040: 3be1 083e f38b 14be 7b57 9c3c 9fad 693e
00000050: 5560 983e 3206 03be f59d 8c3e 5886 e3bd
00000060: 6c8d 93bd 57fa dbbd 1cad 803e aca6 63bd
00000070: e18e f1bd f507 aebc 5f00 32bc 53d9 23bd
00000080: 6e55 fa3d 1f02 00be 5945 4c3d 13bc 79bd
00000090: f29a 52bd 6172 a63e 973d b9bd 7b55 393e
000000a0: 546b 2e3e ec54 f3bb be78 0dbe 579a 413d
000000b0: 3fa6 aa3d 4bb6 b0bd 7945 fbbd 4638 0cbe
000000c0: b5df 03bd e106 0fbd 46c1 acbe 24df 813e
000000d0: 371a 81be 9222 453e 8a96 00bd f0da f1ba
000000e0: 4521 ad3d 87a1 e9bd 9881 b33e 411c 7cbe
000000f0: f1b5 37bc a6ff 4c3e 7b9e 5fbd 44f9 183e
00000100: e03e 40be d702 363c 4f00 9a3d c2f6 1abc
00000110: b4ac 53bd 5837 bb3c 587b 7f3e 5adc 733d
00000120: 3ad5 00be 65a0 f73b 0dce 983d cbf6 e3bd
00000130: 3625 6e3d 4054 553e 054f 153e cc6b 85bd
00000140: b421 a4bd a354 843e a113 0dbe 67da 233e
00000150: bed0 373e ea68 c83e 95a6 833d 4ffa 44bb
00000160: df28 abbd 4152 94bd ada9 933d a0ef 02be
00000170: caa6 e73c 0dad 323c 75f8 c23d 3cea 363e
00000180: 49a7 65be 5a03 8abd 45f7 78bc 8418 1abe
00000190: 1ab1 e2bd 805a 233e 7ef7 a3b9 8349 19bd
000001a0: 0aec 16be 1afe afbc 98eb 9bbc ca6f dcbd
000001b0: 56e7 8b3c e169 883d cf43 173e 79c7 14be
000001c0: 71f8 64be 70d0 553e 8de9 94bd c142 d8bd
000001d0: 34df 9e3d bb59 b8bd 2928 c7bd 712f dc3d
000001e0: 66ea 0cbe 0107 e9bd 96e7 b93d 70b4 60be
000001f0: 46ac 793e 5a93 22be cf44 a83c 264c 623e
00000200: 5a31 9bbc a0f9 a4bd 3458 0dbe df3b 0abd
00000210: 3331 f3bd 44b9 99bd 6085 6ebb 029a b5be
00000220: a2b9 b13c 1ebf 02bd 8e3d 2cbe b271 34bd
00000230: 6d0a e2bd 78be b23e 6b1c 01be 0e60 8cbe
00000240: e599 603e c93b 7abd b5c4 83bd 19e4 453e
00000250: 9ec8 b63c b842 373e 4809 3fbc 0e23 b33d
00000260: 0608 293e b36d 84bd 9d16 12be 8cc1 223e
00000270: b757 0b3e fd15 05be ddcc c83e 31f5 303e
00000280: 0920 433d 716f fabd 6721 99bd 43e0 cd3c
00000290: 4461 b83d 3cd7 ae3d 7390 d53d 764d 363d
000002a0: 4a4e 343e 8eec be3d dd4c 3abd ab32 d3bd
000002b0: 6742 abbe fb89 27bc 7c07 373e 658e a6be
000002c0: 38a6 d23d afe8 02be da52 4dbb 2573 19bd
000002d0: e9a2 77bd 7943 86bd 6b86 073e de69 77bd
000002e0: 5e74 1c3d b00c 4a3d d9fc 943d f815 4b3d
000002f0: 72aa bdbd 9ceb 66bd 7ad8 583d 0a01 8fbd
00000300: 8294 6fbe 0435 233d d378 453e f88b a23d
00000310: e9fc c7bd 3d3d 23be d928 9dbe 6182 bfbe

coefficient1 f4 [200, 150]
-0.39255813 -0.018722929 0.33497858 -0.1152851 0.06009457 -0.52882445 -0.17217103 -0.04227976
7.153772e-37 -0.009508485 -0.13135947 0.16202757 2.3126072e-37 8.149494e-37 0.17494686 -0.086806364
0.041822545 -0.02455128 -1.4168355e-24 -1.1388814e-34 0.06591114 0.10729448 -5.2326973e-37 -0.18744095
-0.5923257 -0.009016876 0.13087906 -0.096957155 0.06009324 0.13345557 -0.064618014 -0.5550345
-7.321661e-38 0.095105946 -0.044595778 0.018153436 -0.0986662 0.1326078 -6.2669794e-37 0.04977632
0.046880137 0.13381477 0.05002113 0.09636943 -0.33343405 0.14803945 -0.21474744 -0.07079514
-1.1557157e-36 0.33835852 0.2586818 0.06267681 0.05478584 -0.04270763 -0.020955274 -0.16224255
0.33611172 -0.19400689 -0.091003016 0.011868881 -1.7563716e-19 0.0095750345 0.17835514 7.1525856e-37
-0.21356411 -1.7588955e-37 0.07395604 -1.8264501e-37 -4.119027e-37 -1.0213461e-36 0.007643827 -0.0020105117
0.1905869 0.16907062 -0.10297254 -0.4390273 0.07384462 -4.0227463e-37 -0.039809298 0.17938884
-0.05370938 -0.08176169 -0.022427032 -0.08517984 0.068685934 -0.16154851 0.1802063 0.13166873
4.050803e-37 -0.0898271 -0.11455978 -7.4691024e-37 0.0020445571 -0.161766 0.271156 0.09456236
-0.022532532 -0.10187584 0.06052995 0.16158874 -0.08689022 1.569963e-37 0.083006956 0.04993662
0.21569811 -0.52675754 -0.048856083 -0.12806411 -2.212684e-37 6.661687e-37 -0.24859805 -6.678668e-37
-0.17910028 -0.6697565 -0.1262594 0.014134114 0.0076354477 -0.023498768 -0.049903635 -0.047660805
-0.029873976 -3.052524e-37 -0.21096241 0.23736675 9.148843e-13 0.024427103 0.116902344 -0.16704664
0.03397311 -0.13391413 0.087233864 -0.02285095 -0.46831983 0.286612 -0.07765574 -0.91677606
-0.010840697 0.33732674 -0.029218072 4.8630994e-37 -0.15397878 -0.003718964 1.0707355e-31 0.0019140863
0.0021988188 0.22103345 0.033042673 -1.6459999e-05 0.0013182258 0.16511539 0.24705578 0.030989861
-0.17779769 -0.036250986 0.06397561 0.19904964 0.022702023 -0.17135051 1.1455312e-36 0.0505568
0.109091416 -0.35639417 -0.017161211 -4.294761e-39 0.10289976 -0.08978852 -0.016547551 -0.09314624
-0.020784615 -6.9327334e-37 -0.19617021 0.09524605 2.9226992e-37 -0.14128737 -0.08143433 0.0034774665
0.3749942 0.14395443 -0.27190566 0.12836939 0.010868384 0.06596039 -6.49446e-37 -0.4648915
0.000909264 0.050777964 0.049625948 -0.27773875 -4.6693718e-37 0.031606376 0.03952456 0.29534885
0.06253211 0.17309678 -0.115598455 -0.15020846 -0.19417083 0.02985466 6.5523335e-37 -0.10616954
0.029788267 -0.29822293 0.073824 0.058378104 -0.44347203 0.15195705 0.13731202 -0.4700313
0.011314405 0.4722594 -6.579638e-13 0.014144531 -0.14197111 -1.0712828e-36 0.20674835 2.1152087e-37
-0.17686246 3.718951e-37 2.1183068e-37 3.4898477e-37 -0.036880285 -0.0120747425 -0.12119709 0.20685256
-0.1339693 -0.6111676 0.1582933 -2.5985836e-37 -0.022409301 0.022236088 0.10473834 0.058007576
-0.042930532 0.023087636 -0.96178097 -0.01391054 -0.0769006 0.040963482 -3.5509365e-37 0.075674124
-0.17074461 6.2859935e-37 -0.03982569 0.081514135 0.095503114 0.069071054 -0.09567275 -0.048938904
-0.062788114 0.031506818 0.06423429 2.6388029e-37 0.07092701 0.046064306 -0.040598597 -0.029938629
00000000: 61fd c8be d460 99bc 5082 ab3e 981a ecbd
00000010: b925 763d 0a61 07bf 9a4d 30be 8b2d 2dbd
00000020: 256e 7303 7ac9 1bbc 1983 06be 8eea 253e
00000030: 4d63 9d02 0da8 8a03 4525 333e 89c7 b1bd
00000040: 1e4e 2b3d c41f c9bc a33e db97 2062 1787
00000050: 6bfc 863d 35bd db3d 390f 3283 85f0 3fbe
00000060: a8a2 17bf 85bb 13bc 2905 063e 7991 c6bd
00000070: 5424 763d 94a8 083e 7356 84bd be16 0ebf
00000080: 8850 c781 e8c6 c23d 10aa 36bd 84b6 943c
00000090: 8111 cabd 57ca 073e 1741 5583 41e2 4b3d
000000a0: 6305 403d bd06 093e f5e2 4c3d 565d c53d
000000b0: deb7 aabe a797 173e c1e6 5bbe 0bfd 90bd
000000c0: 85a2 c483 543d ad3e f171 843e b35c 803d
000000d0: 1e67 603d 32ee 2ebd 65aa abbc e922 26be
000000e0: d616 ac3e bea9 46be ca5f babd b275 423c
000000f0: 135b 4fa0 9be0 1c3c bba2 363e cf63 7303
00000100: 8db0 5abe 9068 6f82 4476 973d 7f9a 7882
00000110: c929 0c83 e6c5 ad83 1179 fa3b cac2 03bb
00000120: 3629 433e d920 2d3e 44e3 d2bd 30c8 e0be
00000130: d93b 973d 10e3 0883 130f 23bd b5b1 373e
00000140: 5efe 5bbd ac72 a7bd e5b8 b7bc c572 aebd
00000150: 36ab 8c3d f96c 25be 0088 383e 2bd4 063e
00000160: 79d7 0903 45f7 b7bd 519e eabd 0f29 7e83
00000170: fafd 053b fca5 25be f6d4 8a3e e9a9 c13d
00000180: 2596 b8bc 48a4 d0bd 41ee 773d 8577 253e
00000190: 80f3 b1bd 3ab1 5502 8dff a93d 578a 4c3d
000001a0: f7df 5c3e 95d9 06bf 511d 48bd 3d23 03be
000001b0: 6496 9682 7aaf 6203 7d90 7ebe 6743 6383
000001c0: 1066 37be 2975 2bbf 254a 01be c592 673c
000001d0: c732 fa3b 7d80 c0bc c167 4cbd fa37 43bd
000001e0: 45ba f4bc 78be cf82 8806 58be 4510 733e
000001f0: 2ec2 802b 591b c83c 7f6a ef3d 460e 2bbe
00000200: 6327 0b3d c920 09be aba7 b23d ea31 bbbc
00000210: 9ec7 efbe cfbe 923e f909 9fbd d6b1 6abf
00000220: 2e9d 31bc 17b6 ac3e bd5a efbc 927b 2503
00000230: 9dac 1dbe ddb9 73bb 4afd 0a0c 14e2 fa3a
00000240: 0f1a 103b 9856 623e c157 073d 9413 8ab7
00000250: 51c8 ac3a 0214 293e 31fc 7c3e 73de fd3c
00000260: 9910 36be ea7b 14bd a505 833d abd3 4b3e
00000270: 98f9 b93c 8276 2fbe ece6 c203 a614 4f3d
00000280: 526b df3d 4c79 b6be ab95 8cbc 0cc4 2e80
00000290: 1cbd d23d 0be3 b7bd bb8e 87bc 75c3 bebd
000002a0: 7f44 aabc a0e8 6b83 d8e0 48be 5c10 c33d
000002b0: 9ae8 c602 a3ad 10be 0bc7 a6bd 35e6 633b
000002c0: 3dff bf3e ca68 133e 3837 8bbe 4473 033e
000002d0: 4e11 323c 3e16 873d bafe 5c83 4206 eebe
000002e0: ad5b 6e3a 8efc 4f3d 9444 4b3d c633 8ebe
000002f0: f7e3 1e83 b075 013d 81e4 213d f737 973e
00000300: d610 803d 4840 313e e2be ecbd 3fd0 19be
00000310: b8d4 46be c391 f43c e0f6 5e03 6a6f d9bd
00000320: 8606 f43c adb0 98be 0a31 973d e11d 6f3d
00000330: c40e e3be a19a 1b3e 869b 0c3e f1a7 f0be
00000340: 0e60 393c fccb f13e 4a33 39ab 77be 673c
00000350: e060 11be f244 b683 d7b5 533e 22f4 8f02
00000360: 6f1b 35be 4419 fd02 1c2a 9002 b981 ed02
00000370: c80f 17bd 24d5 45bc 2e36 f8bd 28d1 533e
00000380: 402f 09be 7b75 1cbf a417 223e b6d9 b082
00000390: b693 b7bc 7528 b63c 0e81 d63d 5a99 6d3d
000003a0: edd7 2fbd 4822 bd3c 4737 76bf 09e9 63bc
000003b0: 107e 9dbd 53c9 273d 0aaa f182 09fb 9a3d
000003c0: add7 2ebe bae6 5503 4320 23bd e2f0 a63d
000003d0: 2397 c33d 2075 8d3d 13f0 c3bd 2974 48bd
000003e0: 0e97 80bd 4b0d 013d 448d 833d 6e96 b302
000003f0: 2e42 913d edad 3c3d b74a 26bd db41 f5bc

intercepts1 f4 [1, 150]
-0.057320558 0.13209978 -0.027165458 0.14770663 -0.046488885 0.10303558 0.061577953 -0.097877905
-0.10373512 -0.17514019 0.19513525 0.017664982 -0.14543897 -0.12082079 -0.26954406 0.024377054
0.010241631 0.13943982 -0.04113183 -0.01070654 -0.17971727 -0.08183926 -0.04592856 0.029386062
0.06637291 -0.041924518 -0.07273712 0.15919152 -0.028693657 0.07896669 0.051490605 -0.045362335
-0.00019455097 -0.15308945 0.04809724 -0.03405535 0.016249806 -0.073579445 -0.0017897007 -0.093203194
0.13107316 -0.21668172 0.07518379 -0.10438011 0.056706067 0.024235595 0.106395476 0.27154857
-0.09061844 -0.011775559 0.055038113 -0.044035394 0.14399055 -0.15734823 -0.03167665 -0.007899682
-0.18195419 0.14241548 0.13124982 -0.023644213 -0.0785009 -0.12618037 0.13004379 -0.0669133
0.26687363 -0.09223162 -0.01389562 -0.10031952 -0.11491407 -0.048274215 -0.112154014 -0.08290947
-0.13277313 -0.23881114 0.18426667 0.08494816 0.08200504 -0.09485313 0.16840808 -0.2233581
-0.08284509 -0.045200255 -0.020255875 0.16113517 -0.14449456 0.19123891 -0.0223931 -0.06102873
-0.10458227 -0.08492574 0.03159721 -0.0107791675 -0.15769114 -0.03545925 -0.23479412 -0.04360381
-0.18130834 0.14317381 -0.060448572 0.094672106 0.029127076 -0.10171942 0.08744413 0.038369026
-0.20505482 0.07304579 0.0005824652 0.23700206 -0.08952006 -0.11059178 0.20456697 -0.024015103
-0.06035329 0.024873778 -0.06814293 -0.19962119 0.034457356 -0.10449252 -0.10365954 0.026887203
0.100126795 -0.045697354 0.05564527 -0.19887649 -0.110927634 -0.13339733 0.14487118 -0.03456241
0.2810896 0.19197735 -0.02401215 0.022082828 -0.12871055 0.08020498 0.10613132 0.0892663
-0.0012710403 0.07352931 0.28637016 -0.11672285 0.3017922 0.046661258 -0.118582934 -0.21255082
-0.05805238 0.023295335 -0.042617597 -0.053982824 -0.08255967 -0.23982124
00000000: f6c8 6abd 2a45 073e 188a debc 6840 173e
00000010: 216b 3ebd 5104 d33d 2a39 7c3d 3674 c8bd
00000020: 1473 d4bd f357 33be 89d1 473e 27b6 903c
00000030: f4ed 14be e470 f7bd ae01 8abe 63b2 c73c
00000040: 84cc 273c 50c9 0e3e da79 28bd 7c6a 2fbc
00000050: ce07 38be 589b a7bd 961f 3cbd 0abb f03c
00000060: 85ee 873d 0bb9 2bbd 33f7 94bd 1a03 233e
00000070: f60e ebbc 4ab9 a13d d0e7 523d dbcd 39bd
00000080: 6100 4cb9 7bc3 1cbe 9d01 453d 9f7d 0bbd
00000090: 501e 853c d2b0 96bd 6494 eaba 51e1 bebd
000000a0: 0b38 063e d0e1 5dbe f5f9 993d 3dc5 d5bd
000000b0: 9f44 683d ba89 c63c dfe5 d93d 6a08 8b3e
000000c0: 2996 b9bd 46ee 40bc a56f 613d 755e 34bd
000000d0: 4272 133e e51f 21be 60bf 01bd ab6d 01bc
000000e0: 3352 3abe 5dd5 113e 5a66 063e 82b1 c1bc
000000f0: 14c5 a0bd 6d35 01be 332a 053e d709 89bd
00000100: a9a3 883e eee3 bcbd 74aa 63bc 5274 cdbd
00000110: 1158 ebbd 2fbb 45bd 01b1 e5bd 71cc a9bd
00000120: aef5 07be e88a 74be 67b0 3c3e 4df9 ad3d
00000130: 42f2 a73d 5c42 c2bd 2b73 2c3e fcb7 64be
00000140: b0aa a9bd e723 39bd a6ef a5bc 9e00 253e
00000150: 62f6 13be 22d4 433e bc71 b7bc 43f9 79bd
00000160: 3b2f d6bd 8ced adbd 136c 013d 1b9b 30bc
00000170: c979 21be b83d 11bd df6d 70be e999 32bd
00000180: e5a8 39be 289c 123e ec98 77bd 73e3 c13d
00000190: e89b ee3c 4552 d0bd e815 b33d d728 1d3d
000001a0: e4f9 51be 0899 953d 94b0 183a abb0 723e
000001b0: 4b56 b7bd f17d e2bd 017a 513e 52bb c4bc
000001c0: 0335 77bd 18c4 cb3c 858e 8bbd 7f69 4cbe
000001d0: 2823 0d3d 2d00 d6bd 744b d4bd 8d42 dc3c
000001e0: 470f cd3d 262d 3bbd 4bec 633d 47a6 4bbe
000001f0: 072e e3bd 4f99 08be 1c59 143e 5091 0dbd
00000200: faea 8f3e b695 443e 21b5 c4bc 0ce7 b43c
00000210: b3cc 03be 8242 a43d 615b d93d 40d1 b63d
00000220: 0999 a6ba 8996 963d 1c9f 923e 640c efbd
00000230: 8284 9a3e e01f 3f3d 9cdb f2bd eca6 59be
00000240: 55c8 6dbd dcd5 be3c ca8f 2ebd 181d 5dbd
00000250: 0b15 a9bd b393 75be

coefficient2 f4 [150, 100]
0.41680387 -0.29247624 -0.51780945 -0.41804224 0.26660195 0.010188733 0.4434755 0.22252038
-0.10211637 -6.1075313e-37 0.62815547 0.10850816 -0.36545056 0.3730499 1.0201992e-36 -0.3235954
-0.5572457 -0.112993285 -0.5095788 -0.390027 -0.65361404 -0.2948105 0.6860731 0.07722181
0.7458261 -0.45286834 -2.4730204e-11 -0.521055 -0.46395716 -0.14305402 -0.9929283 -0.2966667
0.033053085 -0.36554417 1.0307059 0.50575334 2.9489595e-09 0.3723898 -2.3989508e-37 0.8088434
0.09904748 -1.056159 -3.5224318e-37 0.54711974 -0.17781894 -0.031134726 -0.44548124 -0.52409345
-0.09947197 0.5051126 -0.043767925 0.44583935 -0.80707395 -0.080986954 -9.444539e-38 1.266638e-37
-0.44898468 -6.483597e-37 -0.19787462 -0.5622389 -0.4766809 -0.1083127 -0.16107263 0.47333226
-7.1646763e-37 3.4670465e-37 0.39950022 0.7396991 0.022827346 -0.9152461 1.632961e-27 0.85206586
0.39471856 0.3585139 -0.19089796 -0.1619732 -0.051553555 -1.7335457e-37 0.5727641 -0.15243517
0.0011978265 -0.6801418 1.4142885e-16 -0.010566008 -0.4236523 0.6906554 0.33122697 -5.148192e-37
0.34869426 -0.46285567 -0.373151 -0.67130494 -2.6350187e-37 0.73850054 0.4258273 0.5110072
-0.3807102 0.43618077 0.65936506 -0.8175619 0.78970164 -0.005500028 0.097172745 -0.15188196
0.19125469 0.10435526 0.06356636 0.38503227 0.14524373 5.47821e-37 0.22906528 0.13459805
-0.108533055 0.12439864 1.24039424e-36 0.15297817 -0.12499587 0.3029021 0.12989633 -0.068335295
-0.076175585 -0.053587418 0.149055 -0.14587963 0.2850605 -0.0831132 3.6833196e-08 -0.019486187
-0.15456921 0.02035684 -0.16977449 -0.1603649 0.41308302 -0.45392942 0.21806757 0.27228224
0.0002350921 0.07177587 -1.3705662e-37 0.112533025 -0.12117349 0.16015331 8.4507095e-37 0.20149325
0.051885977 0.03193892 -0.1174017 -0.18792538 -0.031866547 0.309016 -0.19280562 0.29598302
-0.20241068 0.058991216 8.5205484e-20 -2.5738678e-37 -0.03916061 -0.0021413658 0.15860839 -0.19024025
0.110828616 -0.03573633 0.12791479 0.09153766 -5.170364e-37 1.208279e-36 0.08700496 0.17080402
0.07470093 -0.13915098 -0.01898675 0.3447735 0.33064944 0.19029222 -0.12575413 0.001340225
0.05396491 -6.274614e-37 0.18531528 -0.5557736 -1.1918117e-05 -1.9346619 -6.7126265e-24 -0.83014494
-0.002152197 0.10363229 0.09288036 5.6276962e-37 0.08764482 0.02800676 0.19738716 -0.4455167
-1.1659218e-36 -0.10625321 -0.0062796716 0.19213493 -0.07446166 0.1911667 -0.10656601 0.0064480803
0.004066891 -0.18480039 0.04691471 -0.41388 0.35723895 -0.3070463 0.035736963 0.09666838
0.25080198 -2.7089927e-37 0.26367342 0.20912385 -0.27914074 0.10061844 5.243702e-38 0.2153269
0.080233976 0.14382748 -0.051362086 -0.111049764 -0.104224004 -0.02977591 0.19195785 -0.3614411
0.09603609 -0.6195241 -0.04213966 -0.1681216 0.03875232 -0.4374876 -0.08560493 -0.2991855
0.30571753 -0.29478723 0.16209693 0.08331002 -0.022559622 -0.7461421 4.29049e-37 0.108162515
-0.18764265 -1.071818 -2.0271847e-37 0.14633685 -0.4089802 -0.47705328 -0.16629755 -0.1792194
-0.28741762 0.30840632 -0.012950145 0.12415498 -0.05164044 -0.26046407 -0.002706305 -6.664674e-37
00000000: 5167 d53e 72bf 95be 298f 04bf a209 d6be
00000010: 0d80 883e a5ee 263c 390f e33e 62dc 633e
00000020: 6322 d1bd 1ad4 4f83 ccce 203f 8739 de3d
00000030: 561c bbbe 6600 bf3e f193 ad03 4cae a5be
00000040: a7a7 0ebf 0669 e7bd c273 02bf 9eb1 c7be
00000050: 4053 27bf 67f1 96be 7da2 2f3f 7826 9e3d
00000060: 76ee 3e3f 5cde e7be 7887 d9ad dc63 05bf
00000070: cb8b edbe c17c 12be 8d30 7ebf b3e4 97be
00000080: ac62 073d 9b28 bbbe 2cee 833f 0d79 013f
00000090: a5a6 4a31 e0a9 be3e 9e43 a382 5c10 4f3f
000000a0: 68d9 ca3d 3830 87bf 6bb9 ef82 0a10 0c3f
000000b0: 2b16 36be 410e ffbc 1e16 e4be fd2a 06bf
000000c0: f6b7 cbbd 0f4f 013f ff45 33bd 0e45 e43e
000000d0: 669c 4ebf 7ddc a5bd 6a8d 0082 e567 2c02
000000e0: 52e1 e5be 18a0 5c83 a59f 4abe e3ee 0fbf
000000f0: 850f f4be 0dd3 ddbd 39f0 24be 9b58 f23e
00000100: 22cd 7383 78f4 eb02 4b8b cc3e ec5c 3d3f
00000110: 6a00 bb3c 924d 6abf 6260 0113 fd20 5a3f
00000120: 8d18 ca3e 228f b73e c17a 43be 4ddc 25be
00000130: d229 53bd 40f5 6b82 aba0 123f f717 1cbe
00000140: 6300 9d3a c61d 2ebf 6e0e 2325 0d1d 2dbc
00000150: f4e8 d8be cbce 303f 9596 a93e 142f 2f83
00000160: 0e88 b23e 6bfb ecbe a60d bfbe a4da 2bbf
00000170: 8054 b382 5f0e 3d3f 0906 da3e 5ed1 023f
00000180: 73ec c2be 1653 df3e 26cc 283f bd4b 51bf
00000190: e329 4a3f 9439 b4bb 8102 c73d f286 1bbe
000001a0: 45d8 433e 36b8 d53d 142f 823d f322 c53e
000001b0: c6ba 143e f169 3a03 1790 6a3e 12d4 093e
000001c0: 9446 debd b7c4 fe3d ca0a d303 4fa6 1c3e
000001d0: d6fd ffbd fc15 9b3e 8b03 053e 60f3 8bbd
000001e0: f201 9cbd 7b7e 5bbd e0a1 183e 7861 15be
000001f0: 73f3 913e 4137 aabd 8732 1e33 7fa1 9fbc
00000200: 6447 1ebe 63c3 a63c 5dd9 2dbe b236 24be
00000210: 9e7f d33e 7069 e8be 1b4d 5f3e 9468 8b3e
00000220: 0e83 7639 3aff 923d 438d 3a82 b777 e63d
00000230: cf29 f8bd 3bff 233e 08c8 8f03 3f54 4e3e
00000240: 6486 543d 63d2 023d 4d70 f0bd 836f 40be
00000250: 7f86 02bd 5837 9e3e d66e 45be 168b 973e
00000260: bf44 4fbe c6a0 713d 8e2f c91f 1a2b af82
00000270: e066 20bd 2856 0cbb 3d6a 223e 57ce 42be
00000280: 1dfa e23d 4260 12bd 18fc 023e 1978 bb3d
00000290: 39f0 2f83 f993 cd03 a82f b23d 40e7 2e3e
000002a0: cdfc 983d 987d 0ebe 1a8a 9bbc 2786 b03e
000002b0: e24a a93e f7db 423e b1c5 00be 7daa af3a
000002c0: 4f0a 5d3d 9983 5583 4ac3 3d3e 2e47 0ebf
000002d0: ecf3 47b7 00a3 f7bf 51d7 0199 6184 54bf
000002e0: e00b 0dbb 2b3d d43d 0f38 be3d 2680 3f03
000002f0: 217f b33d 6f6e e53c dc1f 4a3e c41a e4be
00000300: 0e5f c683 489b d9bd b4c5 cdbb 05bf 443e
00000310: 5b7f 98bd 34c1 433e 483f dabd 6b4a d33b
00000320: 8e43 853b 503c 3dbe a429 403d 14e8 d3be
00000330: 06e8 b63e 2c35 9dbe ec60 123d 12fa c53d
00000340: 1e69 803e 4f5d b882 3400 873e 9024 563e
00000350: 89eb 8ebe 0a11 ce3d 45bf 8e01 a87e 5c3e
00000360: b651 a43d 8347 133e 0d61 52bd 0f6e e3bd
00000370: 6573 d5bd 9cec f3bc 9990 443e cf0e b9be
00000380: 92ae c43d 2299 1ebf a39a 2cbd 1228 2cbe
00000390: c1ba 1e3d 60fe dfbe a351 afbd d82e 99be
000003a0: 0287 9c3e 5aee 96be bdfc 253e 729e aa3d
000003b0: f5ce b8bc 2b03 3fbf 70ff 1103 4f84 dd3d
000003c0: 6525 40be 5531 89bf 8af6 8982 54d9 153e
000003d0: da65 d1be 5440 f4be e849 2abe 4a85 37be
000003e0: 6728 93be 6fe7 9d3e d82c 54bc f744 fe3d
000003f0: ed84 53bd 8c5b 85be 435c 31bb 80c9 6283

intercepts2 f4 [1, 100]
0.11337598 -0.12309596 -0.20735165 0.23818384 0.13931906 0.22281876 0.21116112 0.013381723
-0.22336654 -0.11532814 0.17649606 0.071763486 0.18319254 0.17293778 -0.13985792 -0.17475024
-0.27973863 0.040923115 -0.12710539 0.16187492 0.049937695 0.12409442 -0.031392373 0.0777721
-0.031802148 0.26691464 0.039009713 -0.016980289 -0.15101075 0.17245175 0.09006602 0.039366648
-0.029800558 0.101098806 -0.088053815 0.15758705 -0.15958327 0.0730949 -0.1360868 -0.06821003
0.033321224 -0.1124492 -0.06270171 0.054051146 0.21814863 -0.005947645 0.120325334 0.15416351
0.013386257 -0.100833304 -0.028450014 0.053129334 -0.17169578 0.14707805 -0.09577382 -0.10160185
0.036165882 0.00501408 0.033537198 -0.026868017 0.029761242 0.10405407 -0.009189301 0.027070912
-0.15401286 -0.056725543 -0.116771095 -0.06605694 0.15621284 -0.15172656 -0.0068038558 -0.14419153
0.10695141 0.16040474 0.10700286 0.14500256 0.044967804 -0.09807877 -0.07525281 -0.16188195
-0.04895553 0.01254123 0.0126120495 -0.34950417 0.06748828 0.1031368 0.16665803 -0.11614255
0.021950752 -0.06368901 -0.1979019 0.09214296 -0.0459841 -0.09296 0.17352723 0.12691231
0.086940795 0.15870649 -0.35523838 -0.1818915
00000000: aa31 e83d bc19 fcbd fe53 54be 77e6 733e
00000010: a8a9 0e3e 9a2a 643e 9f3a 583e 043f 5b3c
00000020: 33ba 64be 2931 ecbd 62bb 343e bcf8 923d
00000030: d396 3b3e 9a16 313e ea36 0fbe baf1 32be
00000040: e739 8fbe ff9e 273d ea27 02be 8ac2 253e
00000050: 788b 4c3d 3725 fe3d 4a95 00bd fb46 9f3d
00000060: f842 02bd 09a9 883e a6c8 1f3d 3f1a 8bbc
00000070: 90a2 1abe 3197 303e 8974 b83d ec3e 213d
00000080: 4d20 f4bc e40c cf3d 8f55 b4bd 805e 213e
00000090: cc69 23be c7b2 953d 575a 0bbe b3b1 8bbd
000000a0: d67b 083d c44b e6bd c169 80bd bc64 5d3d
000000b0: 5b62 5f3e 76e4 c2bb 216d f63d 0add 1d3e
000000c0: 0852 5b3c b181 cebd 0110 e9bc 259e 593d
000000d0: 05d1 2fbe a19b 163e 1125 c4bd a114 d0bd
000000e0: ad22 143d 274d a43b 4d5e 093d 511a dcbc
000000f0: d9cd f33c 4d1a d53d b98e 16bc d1c3 dd3c
00000100: 8cb5 1dbe 0b59 68bd af25 efbd dc48 87bd
00000110: 42f6 1f3e 355e 1bbe e1f2 debb f2a6 13be
00000120: 5709 db3d 2441 243e 5124 db3d 8d7b 143e
00000130: 2930 383d 86dd c8bd 251e 9abd 62c4 25be
00000140: 9885 48bd bb79 4d3c c5a2 4e3c 36f2 b2be
00000150: 4c37 8a3d 6339 d33d 67a8 2a3e 25dc edbd
00000160: 10d2 b33c 626f 82bd cca6 4abe 73b5 bc3d
00000170: d359 3cbd d061 bebd 1fb1 313e 4df5 013e
00000180: 040e b23d f483 223e cee1 b5be c441 3abe

coefficient3 f4 [100, 1]
-0.78570807 0.4913025 0.8414959 0.61846846 -0.52374536 0.8815303 -0.7403345 -0.5960564
-0.7071505 3.55612e-37 -0.5874825 -0.3578621 0.32645342 -0.45035642 4.085069e-37 1.024045
0.5780029 -0.7497564 0.7383494 0.5158192 0.6437942 0.42245105 -0.89032876 0.51698506
-0.64540094 0.9353567 0.0071496665 0.4660983 0.72795075 0.8051361 0.62475276 0.32237926
-1.0432726 0.7152495 -0.7799748 -0.22682285 -0.019026576 0.97619677 -1.8140886e-37 -0.777914
0.59611523 1.0917541 -2.1029342e-37 -0.36864585 0.8151235 0.5902795 0.3326022 0.3342549
0.49930072 -0.7932593 0.5640761 -0.53001875 1.2705791 0.44327515 -0.01537307 1.5053874e-37
0.666449 0.024683045 -0.519512 0.5667909 0.70140576 0.8716013 -0.5173649 -0.76894414
-1.8867496e-10 -5.6482565e-37 1.2027104 -0.7603425 -0.5261614 0.49207467 -0.011400219 -1.7605885
-0.8709349 -0.34635785 0.5974601 0.6936525 0.57003117 -0.020741181 -0.2662371 0.62797254
-0.10473867 1.1293626 -0.0060808286 -1.9424809 0.5333474 -0.7512796 -0.43898493 2.3521656e-37
-0.69391817 -0.4686577 0.75102764 0.862743 2.0603114e-37 -1.1435131 -0.37091786 -0.4181734
0.44797206 -0.4686735 1.4532522 0.53900874
00000000: 2a24 49bf 008c fb3e 466c 573f f353 1e3f
00000010: 2d14 06bf f8ab 613f 9086 3dbf 2797 18bf
00000020: d107 35bf 5904 f202 4165 16bf b339 b7be
00000030: e724 a73e 1e95 e6be f801 0b03 e813 833f
00000040: 00f8 133f 09f0 3fbf 7704 3d3f ba0c 043f
00000050: b2cf 243f 814b d83e 96ec 63bf 2259 043f
00000060: ff38 25bf 8973 6f3f c047 ea3b 70a4 ee3e
00000070: fb5a 3a3f 661d 4e3f ccef 1f3f e50e a53e
00000080: f589 85bf 971a 373f 6eac 47bf 4044 68be
00000090: 9fdd 9bbc 08e8 793f c3eb 7682 5f25 47bf
000000a0: 029b 183f 99be 8b3f 481e 8f82 26bf bcbe
000000b0: efab 503f 8f1c 173f d64a aa3e 7523 ab3e
000000c0: 58a4 ff3e 0b13 4bbf 4b67 103f 4faf 07bf
000000d0: 56a2 a23f f6f4 e23e 54df 7bbc 18e7 4c02
000000e0: 679c 2a3f 1934 ca3c bdfe 04bf 3519 113f
000000f0: 548f 333f 4321 5f3f 0772 04bf 86d9 44bf
00000100: 4873 4faf 4133 4083 6af2 993f cea5 42bf
00000110: 83b2 06bf 36f1 fb3e fcc7 3abc f75a e1bf
00000120: 97f5 5ebf d155 b1be 25f3 183f 3693 313f
00000130: 90ed 113f 69e9 a9bc 3b50 88be cfc2 203f
00000140: 3a81 d6bd f48e 903f b041 c7bb 37a3 f8bf
00000150: 7589 083f dc53 40bf a2c2 e0be 8114 a002
00000160: 9fa4 31bf e7f3 efbe 5943 403f badc 5c3f
00000170: b037 8c02 a35e 92bf f2e8 bdbe d31a d6be
00000180: 985c e53e f9f5 efbe 2b04 ba3f 7afc 093f
